EDSR(
  (sub_mean): MeanShift(3, 3, kernel_size=(1, 1), stride=(1, 1))
  (add_mean): MeanShift(3, 3, kernel_size=(1, 1), stride=(1, 1))
  (head): Sequential(
    (0): Conv2d(3, 64, kernel_size=(3, 3), stride=(1, 1), padding=(1, 1))
  )
  (body): Sequential(
    (0): ResBlock(
      (body): Sequential(
        (0): Conv2d(64, 64, kernel_size=(3, 3), stride=(1, 1), padding=(1, 1))
        (1): ReLU(inplace=True)
        (2): Conv2d(64, 64, kernel_size=(3, 3), stride=(1, 1), padding=(1, 1))
      )
    )
    (1): ResBlock(
      (body): Sequential(
        (0): Conv2d(64, 64, kernel_size=(3, 3), stride=(1, 1), padding=(1, 1))
        (1): ReLU(inplace=True)
        (2): Conv2d(64, 64, kernel_size=(3, 3), stride=(1, 1), padding=(1, 1))
      )
    )
    (2): ResBlock(
      (body): Sequential(
        (0): Conv2d(64, 64, kernel_size=(3, 3), stride=(1, 1), padding=(1, 1))
        (1): ReLU(inplace=True)
        (2): Conv2d(64, 64, kernel_size=(3, 3), stride=(1, 1), padding=(1, 1))
      )
    )
    (3): ResBlock(
      (body): Sequential(
        (0): Conv2d(64, 64, kernel_size=(3, 3), stride=(1, 1), padding=(1, 1))
        (1): ReLU(inplace=True)
        (2): Conv2d(64, 64, kernel_size=(3, 3), stride=(1, 1), padding=(1, 1))
      )
    )
    (4): ResBlock(
      (body): Sequential(
        (0): Conv2d(64, 64, kernel_size=(3, 3), stride=(1, 1), padding=(1, 1))
        (1): ReLU(inplace=True)
        (2): Conv2d(64, 64, kernel_size=(3, 3), stride=(1, 1), padding=(1, 1))
      )
    )
    (5): ResBlock(
      (body): Sequential(
        (0): Conv2d(64, 64, kernel_size=(3, 3), stride=(1, 1), padding=(1, 1))
        (1): ReLU(inplace=True)
        (2): Conv2d(64, 64, kernel_size=(3, 3), stride=(1, 1), padding=(1, 1))
      )
    )
    (6): ResBlock(
      (body): Sequential(
        (0): Conv2d(64, 64, kernel_size=(3, 3), stride=(1, 1), padding=(1, 1))
        (1): ReLU(inplace=True)
        (2): Conv2d(64, 64, kernel_size=(3, 3), stride=(1, 1), padding=(1, 1))
      )
    )
    (7): ResBlock(
      (body): Sequential(
        (0): Conv2d(64, 64, kernel_size=(3, 3), stride=(1, 1), padding=(1, 1))
        (1): ReLU(inplace=True)
        (2): Conv2d(64, 64, kernel_size=(3, 3), stride=(1, 1), padding=(1, 1))
      )
    )
    (8): ResBlock(
      (body): Sequential(
        (0): Conv2d(64, 64, kernel_size=(3, 3), stride=(1, 1), padding=(1, 1))
        (1): ReLU(inplace=True)
        (2): Conv2d(64, 64, kernel_size=(3, 3), stride=(1, 1), padding=(1, 1))
      )
    )
    (9): ResBlock(
      (body): Sequential(
        (0): Conv2d(64, 64, kernel_size=(3, 3), stride=(1, 1), padding=(1, 1))
        (1): ReLU(inplace=True)
        (2): Conv2d(64, 64, kernel_size=(3, 3), stride=(1, 1), padding=(1, 1))
      )
    )
    (10): ResBlock(
      (body): Sequential(
        (0): Conv2d(64, 64, kernel_size=(3, 3), stride=(1, 1), padding=(1, 1))
        (1): ReLU(inplace=True)
        (2): Conv2d(64, 64, kernel_size=(3, 3), stride=(1, 1), padding=(1, 1))
      )
    )
    (11): ResBlock(
      (body): Sequential(
        (0): Conv2d(64, 64, kernel_size=(3, 3), stride=(1, 1), padding=(1, 1))
        (1): ReLU(inplace=True)
        (2): Conv2d(64, 64, kernel_size=(3, 3), stride=(1, 1), padding=(1, 1))
      )
    )
    (12): ResBlock(
      (body): Sequential(
        (0): Conv2d(64, 64, kernel_size=(3, 3), stride=(1, 1), padding=(1, 1))
        (1): ReLU(inplace=True)
        (2): Conv2d(64, 64, kernel_size=(3, 3), stride=(1, 1), padding=(1, 1))
      )
    )
    (13): ResBlock(
      (body): Sequential(
        (0): Conv2d(64, 64, kernel_size=(3, 3), stride=(1, 1), padding=(1, 1))
        (1): ReLU(inplace=True)
        (2): Conv2d(64, 64, kernel_size=(3, 3), stride=(1, 1), padding=(1, 1))
      )
    )
    (14): ResBlock(
      (body): Sequential(
        (0): Conv2d(64, 64, kernel_size=(3, 3), stride=(1, 1), padding=(1, 1))
        (1): ReLU(inplace=True)
        (2): Conv2d(64, 64, kernel_size=(3, 3), stride=(1, 1), padding=(1, 1))
      )
    )
    (15): ResBlock(
      (body): Sequential(
        (0): Conv2d(64, 64, kernel_size=(3, 3), stride=(1, 1), padding=(1, 1))
        (1): ReLU(inplace=True)
        (2): Conv2d(64, 64, kernel_size=(3, 3), stride=(1, 1), padding=(1, 1))
      )
    )
    (16): Conv2d(64, 64, kernel_size=(3, 3), stride=(1, 1), padding=(1, 1))
  )
  (tail): Sequential(
    (0): Upsampler(
      (0): Conv2d(64, 256, kernel_size=(3, 3), stride=(1, 1), padding=(1, 1))
      (1): PixelShuffle(upscale_factor=2)
    )
    (1): Conv2d(64, 3, kernel_size=(3, 3), stride=(1, 1), padding=(1, 1))
  )
)
EDSR(
  (sub_mean): MeanShift(3, 3, kernel_size=(1, 1), stride=(1, 1))
  (add_mean): MeanShift(3, 3, kernel_size=(1, 1), stride=(1, 1))
  (head): Sequential(
    (0): Conv2d(3, 64, kernel_size=(3, 3), stride=(1, 1), padding=(1, 1))
  )
  (body): Sequential(
    (0): ResBlock(
      (body): Sequential(
        (0): Conv2d(64, 64, kernel_size=(3, 3), stride=(1, 1), padding=(1, 1))
        (1): ReLU(inplace=True)
        (2): Conv2d(64, 64, kernel_size=(3, 3), stride=(1, 1), padding=(1, 1))
      )
    )
    (1): ResBlock(
      (body): Sequential(
        (0): Conv2d(64, 64, kernel_size=(3, 3), stride=(1, 1), padding=(1, 1))
        (1): ReLU(inplace=True)
        (2): Conv2d(64, 64, kernel_size=(3, 3), stride=(1, 1), padding=(1, 1))
      )
    )
    (2): ResBlock(
      (body): Sequential(
        (0): Conv2d(64, 64, kernel_size=(3, 3), stride=(1, 1), padding=(1, 1))
        (1): ReLU(inplace=True)
        (2): Conv2d(64, 64, kernel_size=(3, 3), stride=(1, 1), padding=(1, 1))
      )
    )
    (3): ResBlock(
      (body): Sequential(
        (0): Conv2d(64, 64, kernel_size=(3, 3), stride=(1, 1), padding=(1, 1))
        (1): ReLU(inplace=True)
        (2): Conv2d(64, 64, kernel_size=(3, 3), stride=(1, 1), padding=(1, 1))
      )
    )
    (4): ResBlock(
      (body): Sequential(
        (0): Conv2d(64, 64, kernel_size=(3, 3), stride=(1, 1), padding=(1, 1))
        (1): ReLU(inplace=True)
        (2): Conv2d(64, 64, kernel_size=(3, 3), stride=(1, 1), padding=(1, 1))
      )
    )
    (5): ResBlock(
      (body): Sequential(
        (0): Conv2d(64, 64, kernel_size=(3, 3), stride=(1, 1), padding=(1, 1))
        (1): ReLU(inplace=True)
        (2): Conv2d(64, 64, kernel_size=(3, 3), stride=(1, 1), padding=(1, 1))
      )
    )
    (6): ResBlock(
      (body): Sequential(
        (0): Conv2d(64, 64, kernel_size=(3, 3), stride=(1, 1), padding=(1, 1))
        (1): ReLU(inplace=True)
        (2): Conv2d(64, 64, kernel_size=(3, 3), stride=(1, 1), padding=(1, 1))
      )
    )
    (7): ResBlock(
      (body): Sequential(
        (0): Conv2d(64, 64, kernel_size=(3, 3), stride=(1, 1), padding=(1, 1))
        (1): ReLU(inplace=True)
        (2): Conv2d(64, 64, kernel_size=(3, 3), stride=(1, 1), padding=(1, 1))
      )
    )
    (8): ResBlock(
      (body): Sequential(
        (0): Conv2d(64, 64, kernel_size=(3, 3), stride=(1, 1), padding=(1, 1))
        (1): ReLU(inplace=True)
        (2): Conv2d(64, 64, kernel_size=(3, 3), stride=(1, 1), padding=(1, 1))
      )
    )
    (9): ResBlock(
      (body): Sequential(
        (0): Conv2d(64, 64, kernel_size=(3, 3), stride=(1, 1), padding=(1, 1))
        (1): ReLU(inplace=True)
        (2): Conv2d(64, 64, kernel_size=(3, 3), stride=(1, 1), padding=(1, 1))
      )
    )
    (10): ResBlock(
      (body): Sequential(
        (0): Conv2d(64, 64, kernel_size=(3, 3), stride=(1, 1), padding=(1, 1))
        (1): ReLU(inplace=True)
        (2): Conv2d(64, 64, kernel_size=(3, 3), stride=(1, 1), padding=(1, 1))
      )
    )
    (11): ResBlock(
      (body): Sequential(
        (0): Conv2d(64, 64, kernel_size=(3, 3), stride=(1, 1), padding=(1, 1))
        (1): ReLU(inplace=True)
        (2): Conv2d(64, 64, kernel_size=(3, 3), stride=(1, 1), padding=(1, 1))
      )
    )
    (12): ResBlock(
      (body): Sequential(
        (0): Conv2d(64, 64, kernel_size=(3, 3), stride=(1, 1), padding=(1, 1))
        (1): ReLU(inplace=True)
        (2): Conv2d(64, 64, kernel_size=(3, 3), stride=(1, 1), padding=(1, 1))
      )
    )
    (13): ResBlock(
      (body): Sequential(
        (0): Conv2d(64, 64, kernel_size=(3, 3), stride=(1, 1), padding=(1, 1))
        (1): ReLU(inplace=True)
        (2): Conv2d(64, 64, kernel_size=(3, 3), stride=(1, 1), padding=(1, 1))
      )
    )
    (14): ResBlock(
      (body): Sequential(
        (0): Conv2d(64, 64, kernel_size=(3, 3), stride=(1, 1), padding=(1, 1))
        (1): ReLU(inplace=True)
        (2): Conv2d(64, 64, kernel_size=(3, 3), stride=(1, 1), padding=(1, 1))
      )
    )
    (15): ResBlock(
      (body): Sequential(
        (0): Conv2d(64, 64, kernel_size=(3, 3), stride=(1, 1), padding=(1, 1))
        (1): ReLU(inplace=True)
        (2): Conv2d(64, 64, kernel_size=(3, 3), stride=(1, 1), padding=(1, 1))
      )
    )
    (16): Conv2d(64, 64, kernel_size=(3, 3), stride=(1, 1), padding=(1, 1))
  )
  (tail): Sequential(
    (0): Upsampler(
      (0): Conv2d(64, 256, kernel_size=(3, 3), stride=(1, 1), padding=(1, 1))
      (1): PixelShuffle(upscale_factor=2)
    )
    (1): Conv2d(64, 3, kernel_size=(3, 3), stride=(1, 1), padding=(1, 1))
  )
)
EDSR(
  (sub_mean): MeanShift(3, 3, kernel_size=(1, 1), stride=(1, 1))
  (add_mean): MeanShift(3, 3, kernel_size=(1, 1), stride=(1, 1))
  (head): Sequential(
    (0): Conv2d(3, 64, kernel_size=(3, 3), stride=(1, 1), padding=(1, 1))
  )
  (body): Sequential(
    (0): ResBlock(
      (body): Sequential(
        (0): Conv2d(64, 64, kernel_size=(3, 3), stride=(1, 1), padding=(1, 1))
        (1): ReLU(inplace=True)
        (2): Conv2d(64, 64, kernel_size=(3, 3), stride=(1, 1), padding=(1, 1))
      )
    )
    (1): ResBlock(
      (body): Sequential(
        (0): Conv2d(64, 64, kernel_size=(3, 3), stride=(1, 1), padding=(1, 1))
        (1): ReLU(inplace=True)
        (2): Conv2d(64, 64, kernel_size=(3, 3), stride=(1, 1), padding=(1, 1))
      )
    )
    (2): ResBlock(
      (body): Sequential(
        (0): Conv2d(64, 64, kernel_size=(3, 3), stride=(1, 1), padding=(1, 1))
        (1): ReLU(inplace=True)
        (2): Conv2d(64, 64, kernel_size=(3, 3), stride=(1, 1), padding=(1, 1))
      )
    )
    (3): ResBlock(
      (body): Sequential(
        (0): Conv2d(64, 64, kernel_size=(3, 3), stride=(1, 1), padding=(1, 1))
        (1): ReLU(inplace=True)
        (2): Conv2d(64, 64, kernel_size=(3, 3), stride=(1, 1), padding=(1, 1))
      )
    )
    (4): ResBlock(
      (body): Sequential(
        (0): Conv2d(64, 64, kernel_size=(3, 3), stride=(1, 1), padding=(1, 1))
        (1): ReLU(inplace=True)
        (2): Conv2d(64, 64, kernel_size=(3, 3), stride=(1, 1), padding=(1, 1))
      )
    )
    (5): ResBlock(
      (body): Sequential(
        (0): Conv2d(64, 64, kernel_size=(3, 3), stride=(1, 1), padding=(1, 1))
        (1): ReLU(inplace=True)
        (2): Conv2d(64, 64, kernel_size=(3, 3), stride=(1, 1), padding=(1, 1))
      )
    )
    (6): ResBlock(
      (body): Sequential(
        (0): Conv2d(64, 64, kernel_size=(3, 3), stride=(1, 1), padding=(1, 1))
        (1): ReLU(inplace=True)
        (2): Conv2d(64, 64, kernel_size=(3, 3), stride=(1, 1), padding=(1, 1))
      )
    )
    (7): ResBlock(
      (body): Sequential(
        (0): Conv2d(64, 64, kernel_size=(3, 3), stride=(1, 1), padding=(1, 1))
        (1): ReLU(inplace=True)
        (2): Conv2d(64, 64, kernel_size=(3, 3), stride=(1, 1), padding=(1, 1))
      )
    )
    (8): ResBlock(
      (body): Sequential(
        (0): Conv2d(64, 64, kernel_size=(3, 3), stride=(1, 1), padding=(1, 1))
        (1): ReLU(inplace=True)
        (2): Conv2d(64, 64, kernel_size=(3, 3), stride=(1, 1), padding=(1, 1))
      )
    )
    (9): ResBlock(
      (body): Sequential(
        (0): Conv2d(64, 64, kernel_size=(3, 3), stride=(1, 1), padding=(1, 1))
        (1): ReLU(inplace=True)
        (2): Conv2d(64, 64, kernel_size=(3, 3), stride=(1, 1), padding=(1, 1))
      )
    )
    (10): ResBlock(
      (body): Sequential(
        (0): Conv2d(64, 64, kernel_size=(3, 3), stride=(1, 1), padding=(1, 1))
        (1): ReLU(inplace=True)
        (2): Conv2d(64, 64, kernel_size=(3, 3), stride=(1, 1), padding=(1, 1))
      )
    )
    (11): ResBlock(
      (body): Sequential(
        (0): Conv2d(64, 64, kernel_size=(3, 3), stride=(1, 1), padding=(1, 1))
        (1): ReLU(inplace=True)
        (2): Conv2d(64, 64, kernel_size=(3, 3), stride=(1, 1), padding=(1, 1))
      )
    )
    (12): ResBlock(
      (body): Sequential(
        (0): Conv2d(64, 64, kernel_size=(3, 3), stride=(1, 1), padding=(1, 1))
        (1): ReLU(inplace=True)
        (2): Conv2d(64, 64, kernel_size=(3, 3), stride=(1, 1), padding=(1, 1))
      )
    )
    (13): ResBlock(
      (body): Sequential(
        (0): Conv2d(64, 64, kernel_size=(3, 3), stride=(1, 1), padding=(1, 1))
        (1): ReLU(inplace=True)
        (2): Conv2d(64, 64, kernel_size=(3, 3), stride=(1, 1), padding=(1, 1))
      )
    )
    (14): ResBlock(
      (body): Sequential(
        (0): Conv2d(64, 64, kernel_size=(3, 3), stride=(1, 1), padding=(1, 1))
        (1): ReLU(inplace=True)
        (2): Conv2d(64, 64, kernel_size=(3, 3), stride=(1, 1), padding=(1, 1))
      )
    )
    (15): ResBlock(
      (body): Sequential(
        (0): Conv2d(64, 64, kernel_size=(3, 3), stride=(1, 1), padding=(1, 1))
        (1): ReLU(inplace=True)
        (2): Conv2d(64, 64, kernel_size=(3, 3), stride=(1, 1), padding=(1, 1))
      )
    )
    (16): Conv2d(64, 64, kernel_size=(3, 3), stride=(1, 1), padding=(1, 1))
  )
  (tail): Sequential(
    (0): Upsampler(
      (0): Conv2d(64, 256, kernel_size=(3, 3), stride=(1, 1), padding=(1, 1))
      (1): PixelShuffle(upscale_factor=2)
    )
    (1): Conv2d(64, 3, kernel_size=(3, 3), stride=(1, 1), padding=(1, 1))
  )
)
[Epoch 1]	Learning rate: 1.00e-4
[1600/16000]	[L1: 14.3843]	17.4+158.6s
[3200/16000]	[L1: 10.7492]	5.0+171.3s
[4800/16000]	[L1: 9.1568]	5.0+157.2s
[6400/16000]	[L1: 8.2630]	5.0+154.7s
[8000/16000]	[L1: 7.6740]	5.0+151.7s
[9600/16000]	[L1: 7.2397]	5.0+148.4s
[11200/16000]	[L1: 6.9120]	5.0+154.3s
[12800/16000]	[L1: 6.6632]	5.0+152.2s
[14400/16000]	[L1: 6.4593]	5.1+142.9s
[16000/16000]	[L1: 6.2773]	5.1+147.9s

Evaluation:
EDSR(
  (sub_mean): MeanShift(3, 3, kernel_size=(1, 1), stride=(1, 1))
  (add_mean): MeanShift(3, 3, kernel_size=(1, 1), stride=(1, 1))
  (head): Sequential(
    (0): adder2d(
      (pointwise): Conv2d(3, 64, kernel_size=(1, 1), stride=(1, 1))
    )
  )
  (body): Sequential(
    (0): ResBlock(
      (body): Sequential(
        (0): adder2d(
          (pointwise): Conv2d(64, 64, kernel_size=(1, 1), stride=(1, 1))
        )
        (1): ReLU(inplace=True)
        (2): adder2d(
          (pointwise): Conv2d(64, 64, kernel_size=(1, 1), stride=(1, 1))
        )
      )
    )
    (1): ResBlock(
      (body): Sequential(
        (0): adder2d(
          (pointwise): Conv2d(64, 64, kernel_size=(1, 1), stride=(1, 1))
        )
        (1): ReLU(inplace=True)
        (2): adder2d(
          (pointwise): Conv2d(64, 64, kernel_size=(1, 1), stride=(1, 1))
        )
      )
    )
    (2): ResBlock(
      (body): Sequential(
        (0): adder2d(
          (pointwise): Conv2d(64, 64, kernel_size=(1, 1), stride=(1, 1))
        )
        (1): ReLU(inplace=True)
        (2): adder2d(
          (pointwise): Conv2d(64, 64, kernel_size=(1, 1), stride=(1, 1))
        )
      )
    )
    (3): ResBlock(
      (body): Sequential(
        (0): adder2d(
          (pointwise): Conv2d(64, 64, kernel_size=(1, 1), stride=(1, 1))
        )
        (1): ReLU(inplace=True)
        (2): adder2d(
          (pointwise): Conv2d(64, 64, kernel_size=(1, 1), stride=(1, 1))
        )
      )
    )
    (4): ResBlock(
      (body): Sequential(
        (0): adder2d(
          (pointwise): Conv2d(64, 64, kernel_size=(1, 1), stride=(1, 1))
        )
        (1): ReLU(inplace=True)
        (2): adder2d(
          (pointwise): Conv2d(64, 64, kernel_size=(1, 1), stride=(1, 1))
        )
      )
    )
    (5): ResBlock(
      (body): Sequential(
        (0): adder2d(
          (pointwise): Conv2d(64, 64, kernel_size=(1, 1), stride=(1, 1))
        )
        (1): ReLU(inplace=True)
        (2): adder2d(
          (pointwise): Conv2d(64, 64, kernel_size=(1, 1), stride=(1, 1))
        )
      )
    )
    (6): ResBlock(
      (body): Sequential(
        (0): adder2d(
          (pointwise): Conv2d(64, 64, kernel_size=(1, 1), stride=(1, 1))
        )
        (1): ReLU(inplace=True)
        (2): adder2d(
          (pointwise): Conv2d(64, 64, kernel_size=(1, 1), stride=(1, 1))
        )
      )
    )
    (7): ResBlock(
      (body): Sequential(
        (0): adder2d(
          (pointwise): Conv2d(64, 64, kernel_size=(1, 1), stride=(1, 1))
        )
        (1): ReLU(inplace=True)
        (2): adder2d(
          (pointwise): Conv2d(64, 64, kernel_size=(1, 1), stride=(1, 1))
        )
      )
    )
    (8): ResBlock(
      (body): Sequential(
        (0): adder2d(
          (pointwise): Conv2d(64, 64, kernel_size=(1, 1), stride=(1, 1))
        )
        (1): ReLU(inplace=True)
        (2): adder2d(
          (pointwise): Conv2d(64, 64, kernel_size=(1, 1), stride=(1, 1))
        )
      )
    )
    (9): ResBlock(
      (body): Sequential(
        (0): adder2d(
          (pointwise): Conv2d(64, 64, kernel_size=(1, 1), stride=(1, 1))
        )
        (1): ReLU(inplace=True)
        (2): adder2d(
          (pointwise): Conv2d(64, 64, kernel_size=(1, 1), stride=(1, 1))
        )
      )
    )
    (10): ResBlock(
      (body): Sequential(
        (0): adder2d(
          (pointwise): Conv2d(64, 64, kernel_size=(1, 1), stride=(1, 1))
        )
        (1): ReLU(inplace=True)
        (2): adder2d(
          (pointwise): Conv2d(64, 64, kernel_size=(1, 1), stride=(1, 1))
        )
      )
    )
    (11): ResBlock(
      (body): Sequential(
        (0): adder2d(
          (pointwise): Conv2d(64, 64, kernel_size=(1, 1), stride=(1, 1))
        )
        (1): ReLU(inplace=True)
        (2): adder2d(
          (pointwise): Conv2d(64, 64, kernel_size=(1, 1), stride=(1, 1))
        )
      )
    )
    (12): ResBlock(
      (body): Sequential(
        (0): adder2d(
          (pointwise): Conv2d(64, 64, kernel_size=(1, 1), stride=(1, 1))
        )
        (1): ReLU(inplace=True)
        (2): adder2d(
          (pointwise): Conv2d(64, 64, kernel_size=(1, 1), stride=(1, 1))
        )
      )
    )
    (13): ResBlock(
      (body): Sequential(
        (0): adder2d(
          (pointwise): Conv2d(64, 64, kernel_size=(1, 1), stride=(1, 1))
        )
        (1): ReLU(inplace=True)
        (2): adder2d(
          (pointwise): Conv2d(64, 64, kernel_size=(1, 1), stride=(1, 1))
        )
      )
    )
    (14): ResBlock(
      (body): Sequential(
        (0): adder2d(
          (pointwise): Conv2d(64, 64, kernel_size=(1, 1), stride=(1, 1))
        )
        (1): ReLU(inplace=True)
        (2): adder2d(
          (pointwise): Conv2d(64, 64, kernel_size=(1, 1), stride=(1, 1))
        )
      )
    )
    (15): ResBlock(
      (body): Sequential(
        (0): adder2d(
          (pointwise): Conv2d(64, 64, kernel_size=(1, 1), stride=(1, 1))
        )
        (1): ReLU(inplace=True)
        (2): adder2d(
          (pointwise): Conv2d(64, 64, kernel_size=(1, 1), stride=(1, 1))
        )
      )
    )
    (16): adder2d(
      (pointwise): Conv2d(64, 64, kernel_size=(1, 1), stride=(1, 1))
    )
  )
  (tail): Sequential(
    (0): Upsampler(
      (0): adder2d(
        (pointwise): Conv2d(64, 256, kernel_size=(1, 1), stride=(1, 1))
      )
      (1): PixelShuffle(upscale_factor=2)
    )
    (1): adder2d(
      (pointwise): Conv2d(64, 3, kernel_size=(1, 1), stride=(1, 1))
    )
  )
)
[Epoch 1]	Learning rate: 1.00e-4
EDSR(
  (sub_mean): MeanShift(3, 3, kernel_size=(1, 1), stride=(1, 1))
  (add_mean): MeanShift(3, 3, kernel_size=(1, 1), stride=(1, 1))
  (head): Sequential(
    (0): adder2d(
      (pointwise): Conv2d(3, 64, kernel_size=(1, 1), stride=(1, 1), bias=False)
    )
  )
  (body): Sequential(
    (0): ResBlock(
      (body): Sequential(
        (0): adder2d(
          (pointwise): Conv2d(64, 64, kernel_size=(1, 1), stride=(1, 1), bias=False)
        )
        (1): ReLU(inplace=True)
        (2): adder2d(
          (pointwise): Conv2d(64, 64, kernel_size=(1, 1), stride=(1, 1), bias=False)
        )
      )
    )
    (1): ResBlock(
      (body): Sequential(
        (0): adder2d(
          (pointwise): Conv2d(64, 64, kernel_size=(1, 1), stride=(1, 1), bias=False)
        )
        (1): ReLU(inplace=True)
        (2): adder2d(
          (pointwise): Conv2d(64, 64, kernel_size=(1, 1), stride=(1, 1), bias=False)
        )
      )
    )
    (2): ResBlock(
      (body): Sequential(
        (0): adder2d(
          (pointwise): Conv2d(64, 64, kernel_size=(1, 1), stride=(1, 1), bias=False)
        )
        (1): ReLU(inplace=True)
        (2): adder2d(
          (pointwise): Conv2d(64, 64, kernel_size=(1, 1), stride=(1, 1), bias=False)
        )
      )
    )
    (3): ResBlock(
      (body): Sequential(
        (0): adder2d(
          (pointwise): Conv2d(64, 64, kernel_size=(1, 1), stride=(1, 1), bias=False)
        )
        (1): ReLU(inplace=True)
        (2): adder2d(
          (pointwise): Conv2d(64, 64, kernel_size=(1, 1), stride=(1, 1), bias=False)
        )
      )
    )
    (4): ResBlock(
      (body): Sequential(
        (0): adder2d(
          (pointwise): Conv2d(64, 64, kernel_size=(1, 1), stride=(1, 1), bias=False)
        )
        (1): ReLU(inplace=True)
        (2): adder2d(
          (pointwise): Conv2d(64, 64, kernel_size=(1, 1), stride=(1, 1), bias=False)
        )
      )
    )
    (5): ResBlock(
      (body): Sequential(
        (0): adder2d(
          (pointwise): Conv2d(64, 64, kernel_size=(1, 1), stride=(1, 1), bias=False)
        )
        (1): ReLU(inplace=True)
        (2): adder2d(
          (pointwise): Conv2d(64, 64, kernel_size=(1, 1), stride=(1, 1), bias=False)
        )
      )
    )
    (6): ResBlock(
      (body): Sequential(
        (0): adder2d(
          (pointwise): Conv2d(64, 64, kernel_size=(1, 1), stride=(1, 1), bias=False)
        )
        (1): ReLU(inplace=True)
        (2): adder2d(
          (pointwise): Conv2d(64, 64, kernel_size=(1, 1), stride=(1, 1), bias=False)
        )
      )
    )
    (7): ResBlock(
      (body): Sequential(
        (0): adder2d(
          (pointwise): Conv2d(64, 64, kernel_size=(1, 1), stride=(1, 1), bias=False)
        )
        (1): ReLU(inplace=True)
        (2): adder2d(
          (pointwise): Conv2d(64, 64, kernel_size=(1, 1), stride=(1, 1), bias=False)
        )
      )
    )
    (8): ResBlock(
      (body): Sequential(
        (0): adder2d(
          (pointwise): Conv2d(64, 64, kernel_size=(1, 1), stride=(1, 1), bias=False)
        )
        (1): ReLU(inplace=True)
        (2): adder2d(
          (pointwise): Conv2d(64, 64, kernel_size=(1, 1), stride=(1, 1), bias=False)
        )
      )
    )
    (9): ResBlock(
      (body): Sequential(
        (0): adder2d(
          (pointwise): Conv2d(64, 64, kernel_size=(1, 1), stride=(1, 1), bias=False)
        )
        (1): ReLU(inplace=True)
        (2): adder2d(
          (pointwise): Conv2d(64, 64, kernel_size=(1, 1), stride=(1, 1), bias=False)
        )
      )
    )
    (10): ResBlock(
      (body): Sequential(
        (0): adder2d(
          (pointwise): Conv2d(64, 64, kernel_size=(1, 1), stride=(1, 1), bias=False)
        )
        (1): ReLU(inplace=True)
        (2): adder2d(
          (pointwise): Conv2d(64, 64, kernel_size=(1, 1), stride=(1, 1), bias=False)
        )
      )
    )
    (11): ResBlock(
      (body): Sequential(
        (0): adder2d(
          (pointwise): Conv2d(64, 64, kernel_size=(1, 1), stride=(1, 1), bias=False)
        )
        (1): ReLU(inplace=True)
        (2): adder2d(
          (pointwise): Conv2d(64, 64, kernel_size=(1, 1), stride=(1, 1), bias=False)
        )
      )
    )
    (12): ResBlock(
      (body): Sequential(
        (0): adder2d(
          (pointwise): Conv2d(64, 64, kernel_size=(1, 1), stride=(1, 1), bias=False)
        )
        (1): ReLU(inplace=True)
        (2): adder2d(
          (pointwise): Conv2d(64, 64, kernel_size=(1, 1), stride=(1, 1), bias=False)
        )
      )
    )
    (13): ResBlock(
      (body): Sequential(
        (0): adder2d(
          (pointwise): Conv2d(64, 64, kernel_size=(1, 1), stride=(1, 1), bias=False)
        )
        (1): ReLU(inplace=True)
        (2): adder2d(
          (pointwise): Conv2d(64, 64, kernel_size=(1, 1), stride=(1, 1), bias=False)
        )
      )
    )
    (14): ResBlock(
      (body): Sequential(
        (0): adder2d(
          (pointwise): Conv2d(64, 64, kernel_size=(1, 1), stride=(1, 1), bias=False)
        )
        (1): ReLU(inplace=True)
        (2): adder2d(
          (pointwise): Conv2d(64, 64, kernel_size=(1, 1), stride=(1, 1), bias=False)
        )
      )
    )
    (15): ResBlock(
      (body): Sequential(
        (0): adder2d(
          (pointwise): Conv2d(64, 64, kernel_size=(1, 1), stride=(1, 1), bias=False)
        )
        (1): ReLU(inplace=True)
        (2): adder2d(
          (pointwise): Conv2d(64, 64, kernel_size=(1, 1), stride=(1, 1), bias=False)
        )
      )
    )
    (16): adder2d(
      (pointwise): Conv2d(64, 64, kernel_size=(1, 1), stride=(1, 1), bias=False)
    )
  )
  (tail): Sequential(
    (0): Upsampler(
      (0): adder2d(
        (pointwise): Conv2d(64, 256, kernel_size=(1, 1), stride=(1, 1), bias=False)
      )
      (1): PixelShuffle(upscale_factor=2)
    )
    (1): adder2d(
      (pointwise): Conv2d(64, 3, kernel_size=(1, 1), stride=(1, 1), bias=False)
    )
  )
)
[Epoch 1]	Learning rate: 1.00e-4
EDSR(
  (sub_mean): MeanShift(3, 3, kernel_size=(1, 1), stride=(1, 1))
  (add_mean): MeanShift(3, 3, kernel_size=(1, 1), stride=(1, 1))
  (head): Sequential(
    (0): Conv2d(3, 64, kernel_size=(3, 3), stride=(1, 1), padding=(1, 1))
  )
  (body): Sequential(
    (0): ResBlock(
      (body): Sequential(
        (0): Conv2d(64, 64, kernel_size=(3, 3), stride=(1, 1), padding=(1, 1))
        (1): ReLU(inplace=True)
        (2): Conv2d(64, 64, kernel_size=(3, 3), stride=(1, 1), padding=(1, 1))
      )
    )
    (1): ResBlock(
      (body): Sequential(
        (0): Conv2d(64, 64, kernel_size=(3, 3), stride=(1, 1), padding=(1, 1))
        (1): ReLU(inplace=True)
        (2): Conv2d(64, 64, kernel_size=(3, 3), stride=(1, 1), padding=(1, 1))
      )
    )
    (2): ResBlock(
      (body): Sequential(
        (0): Conv2d(64, 64, kernel_size=(3, 3), stride=(1, 1), padding=(1, 1))
        (1): ReLU(inplace=True)
        (2): Conv2d(64, 64, kernel_size=(3, 3), stride=(1, 1), padding=(1, 1))
      )
    )
    (3): ResBlock(
      (body): Sequential(
        (0): Conv2d(64, 64, kernel_size=(3, 3), stride=(1, 1), padding=(1, 1))
        (1): ReLU(inplace=True)
        (2): Conv2d(64, 64, kernel_size=(3, 3), stride=(1, 1), padding=(1, 1))
      )
    )
    (4): ResBlock(
      (body): Sequential(
        (0): Conv2d(64, 64, kernel_size=(3, 3), stride=(1, 1), padding=(1, 1))
        (1): ReLU(inplace=True)
        (2): Conv2d(64, 64, kernel_size=(3, 3), stride=(1, 1), padding=(1, 1))
      )
    )
    (5): ResBlock(
      (body): Sequential(
        (0): Conv2d(64, 64, kernel_size=(3, 3), stride=(1, 1), padding=(1, 1))
        (1): ReLU(inplace=True)
        (2): Conv2d(64, 64, kernel_size=(3, 3), stride=(1, 1), padding=(1, 1))
      )
    )
    (6): ResBlock(
      (body): Sequential(
        (0): Conv2d(64, 64, kernel_size=(3, 3), stride=(1, 1), padding=(1, 1))
        (1): ReLU(inplace=True)
        (2): Conv2d(64, 64, kernel_size=(3, 3), stride=(1, 1), padding=(1, 1))
      )
    )
    (7): ResBlock(
      (body): Sequential(
        (0): Conv2d(64, 64, kernel_size=(3, 3), stride=(1, 1), padding=(1, 1))
        (1): ReLU(inplace=True)
        (2): Conv2d(64, 64, kernel_size=(3, 3), stride=(1, 1), padding=(1, 1))
      )
    )
    (8): ResBlock(
      (body): Sequential(
        (0): Conv2d(64, 64, kernel_size=(3, 3), stride=(1, 1), padding=(1, 1))
        (1): ReLU(inplace=True)
        (2): Conv2d(64, 64, kernel_size=(3, 3), stride=(1, 1), padding=(1, 1))
      )
    )
    (9): ResBlock(
      (body): Sequential(
        (0): Conv2d(64, 64, kernel_size=(3, 3), stride=(1, 1), padding=(1, 1))
        (1): ReLU(inplace=True)
        (2): Conv2d(64, 64, kernel_size=(3, 3), stride=(1, 1), padding=(1, 1))
      )
    )
    (10): ResBlock(
      (body): Sequential(
        (0): Conv2d(64, 64, kernel_size=(3, 3), stride=(1, 1), padding=(1, 1))
        (1): ReLU(inplace=True)
        (2): Conv2d(64, 64, kernel_size=(3, 3), stride=(1, 1), padding=(1, 1))
      )
    )
    (11): ResBlock(
      (body): Sequential(
        (0): Conv2d(64, 64, kernel_size=(3, 3), stride=(1, 1), padding=(1, 1))
        (1): ReLU(inplace=True)
        (2): Conv2d(64, 64, kernel_size=(3, 3), stride=(1, 1), padding=(1, 1))
      )
    )
    (12): ResBlock(
      (body): Sequential(
        (0): Conv2d(64, 64, kernel_size=(3, 3), stride=(1, 1), padding=(1, 1))
        (1): ReLU(inplace=True)
        (2): Conv2d(64, 64, kernel_size=(3, 3), stride=(1, 1), padding=(1, 1))
      )
    )
    (13): ResBlock(
      (body): Sequential(
        (0): Conv2d(64, 64, kernel_size=(3, 3), stride=(1, 1), padding=(1, 1))
        (1): ReLU(inplace=True)
        (2): Conv2d(64, 64, kernel_size=(3, 3), stride=(1, 1), padding=(1, 1))
      )
    )
    (14): ResBlock(
      (body): Sequential(
        (0): Conv2d(64, 64, kernel_size=(3, 3), stride=(1, 1), padding=(1, 1))
        (1): ReLU(inplace=True)
        (2): Conv2d(64, 64, kernel_size=(3, 3), stride=(1, 1), padding=(1, 1))
      )
    )
    (15): ResBlock(
      (body): Sequential(
        (0): Conv2d(64, 64, kernel_size=(3, 3), stride=(1, 1), padding=(1, 1))
        (1): ReLU(inplace=True)
        (2): Conv2d(64, 64, kernel_size=(3, 3), stride=(1, 1), padding=(1, 1))
      )
    )
    (16): Conv2d(64, 64, kernel_size=(3, 3), stride=(1, 1), padding=(1, 1))
  )
  (tail): Sequential(
    (0): Upsampler(
      (0): Conv2d(64, 256, kernel_size=(3, 3), stride=(1, 1), padding=(1, 1))
      (1): PixelShuffle(upscale_factor=2)
    )
    (1): Conv2d(64, 3, kernel_size=(3, 3), stride=(1, 1), padding=(1, 1))
  )
)
[Epoch 1]	Learning rate: 1.00e-4
[1600/16000]	[L1: 14.3842]	21.7+169.5s
EDSR(
  (sub_mean): MeanShift(3, 3, kernel_size=(1, 1), stride=(1, 1))
  (add_mean): MeanShift(3, 3, kernel_size=(1, 1), stride=(1, 1))
  (head): Sequential(
    (0): adder2d(
      (pointwise): Conv2d(3, 64, kernel_size=(1, 1), stride=(1, 1))
    )
  )
  (body): Sequential(
    (0): ResBlock(
      (body): Sequential(
        (0): adder2d(
          (pointwise): Conv2d(64, 64, kernel_size=(1, 1), stride=(1, 1))
        )
        (1): ReLU(inplace=True)
        (2): adder2d(
          (pointwise): Conv2d(64, 64, kernel_size=(1, 1), stride=(1, 1))
        )
      )
    )
    (1): ResBlock(
      (body): Sequential(
        (0): adder2d(
          (pointwise): Conv2d(64, 64, kernel_size=(1, 1), stride=(1, 1))
        )
        (1): ReLU(inplace=True)
        (2): adder2d(
          (pointwise): Conv2d(64, 64, kernel_size=(1, 1), stride=(1, 1))
        )
      )
    )
    (2): ResBlock(
      (body): Sequential(
        (0): adder2d(
          (pointwise): Conv2d(64, 64, kernel_size=(1, 1), stride=(1, 1))
        )
        (1): ReLU(inplace=True)
        (2): adder2d(
          (pointwise): Conv2d(64, 64, kernel_size=(1, 1), stride=(1, 1))
        )
      )
    )
    (3): ResBlock(
      (body): Sequential(
        (0): adder2d(
          (pointwise): Conv2d(64, 64, kernel_size=(1, 1), stride=(1, 1))
        )
        (1): ReLU(inplace=True)
        (2): adder2d(
          (pointwise): Conv2d(64, 64, kernel_size=(1, 1), stride=(1, 1))
        )
      )
    )
    (4): ResBlock(
      (body): Sequential(
        (0): adder2d(
          (pointwise): Conv2d(64, 64, kernel_size=(1, 1), stride=(1, 1))
        )
        (1): ReLU(inplace=True)
        (2): adder2d(
          (pointwise): Conv2d(64, 64, kernel_size=(1, 1), stride=(1, 1))
        )
      )
    )
    (5): ResBlock(
      (body): Sequential(
        (0): adder2d(
          (pointwise): Conv2d(64, 64, kernel_size=(1, 1), stride=(1, 1))
        )
        (1): ReLU(inplace=True)
        (2): adder2d(
          (pointwise): Conv2d(64, 64, kernel_size=(1, 1), stride=(1, 1))
        )
      )
    )
    (6): ResBlock(
      (body): Sequential(
        (0): adder2d(
          (pointwise): Conv2d(64, 64, kernel_size=(1, 1), stride=(1, 1))
        )
        (1): ReLU(inplace=True)
        (2): adder2d(
          (pointwise): Conv2d(64, 64, kernel_size=(1, 1), stride=(1, 1))
        )
      )
    )
    (7): ResBlock(
      (body): Sequential(
        (0): adder2d(
          (pointwise): Conv2d(64, 64, kernel_size=(1, 1), stride=(1, 1))
        )
        (1): ReLU(inplace=True)
        (2): adder2d(
          (pointwise): Conv2d(64, 64, kernel_size=(1, 1), stride=(1, 1))
        )
      )
    )
    (8): ResBlock(
      (body): Sequential(
        (0): adder2d(
          (pointwise): Conv2d(64, 64, kernel_size=(1, 1), stride=(1, 1))
        )
        (1): ReLU(inplace=True)
        (2): adder2d(
          (pointwise): Conv2d(64, 64, kernel_size=(1, 1), stride=(1, 1))
        )
      )
    )
    (9): ResBlock(
      (body): Sequential(
        (0): adder2d(
          (pointwise): Conv2d(64, 64, kernel_size=(1, 1), stride=(1, 1))
        )
        (1): ReLU(inplace=True)
        (2): adder2d(
          (pointwise): Conv2d(64, 64, kernel_size=(1, 1), stride=(1, 1))
        )
      )
    )
    (10): ResBlock(
      (body): Sequential(
        (0): adder2d(
          (pointwise): Conv2d(64, 64, kernel_size=(1, 1), stride=(1, 1))
        )
        (1): ReLU(inplace=True)
        (2): adder2d(
          (pointwise): Conv2d(64, 64, kernel_size=(1, 1), stride=(1, 1))
        )
      )
    )
    (11): ResBlock(
      (body): Sequential(
        (0): adder2d(
          (pointwise): Conv2d(64, 64, kernel_size=(1, 1), stride=(1, 1))
        )
        (1): ReLU(inplace=True)
        (2): adder2d(
          (pointwise): Conv2d(64, 64, kernel_size=(1, 1), stride=(1, 1))
        )
      )
    )
    (12): ResBlock(
      (body): Sequential(
        (0): adder2d(
          (pointwise): Conv2d(64, 64, kernel_size=(1, 1), stride=(1, 1))
        )
        (1): ReLU(inplace=True)
        (2): adder2d(
          (pointwise): Conv2d(64, 64, kernel_size=(1, 1), stride=(1, 1))
        )
      )
    )
    (13): ResBlock(
      (body): Sequential(
        (0): adder2d(
          (pointwise): Conv2d(64, 64, kernel_size=(1, 1), stride=(1, 1))
        )
        (1): ReLU(inplace=True)
        (2): adder2d(
          (pointwise): Conv2d(64, 64, kernel_size=(1, 1), stride=(1, 1))
        )
      )
    )
    (14): ResBlock(
      (body): Sequential(
        (0): adder2d(
          (pointwise): Conv2d(64, 64, kernel_size=(1, 1), stride=(1, 1))
        )
        (1): ReLU(inplace=True)
        (2): adder2d(
          (pointwise): Conv2d(64, 64, kernel_size=(1, 1), stride=(1, 1))
        )
      )
    )
    (15): ResBlock(
      (body): Sequential(
        (0): adder2d(
          (pointwise): Conv2d(64, 64, kernel_size=(1, 1), stride=(1, 1))
        )
        (1): ReLU(inplace=True)
        (2): adder2d(
          (pointwise): Conv2d(64, 64, kernel_size=(1, 1), stride=(1, 1))
        )
      )
    )
    (16): adder2d(
      (pointwise): Conv2d(64, 64, kernel_size=(1, 1), stride=(1, 1))
    )
  )
  (tail): Sequential(
    (0): Upsampler(
      (0): adder2d(
        (pointwise): Conv2d(64, 256, kernel_size=(1, 1), stride=(1, 1))
      )
      (1): PixelShuffle(upscale_factor=2)
    )
    (1): adder2d(
      (pointwise): Conv2d(64, 3, kernel_size=(1, 1), stride=(1, 1))
    )
  )
)
[Epoch 1]	Learning rate: 1.00e-4
EDSR(
  (sub_mean): MeanShift(3, 3, kernel_size=(1, 1), stride=(1, 1))
  (add_mean): MeanShift(3, 3, kernel_size=(1, 1), stride=(1, 1))
  (head): Sequential(
    (0): adder2d(
      (pointwise): Conv2d(3, 64, kernel_size=(1, 1), stride=(1, 1))
    )
  )
  (body): Sequential(
    (0): ResBlock(
      (body): Sequential(
        (0): adder2d(
          (pointwise): Conv2d(64, 64, kernel_size=(1, 1), stride=(1, 1))
        )
        (1): ReLU(inplace=True)
        (2): adder2d(
          (pointwise): Conv2d(64, 64, kernel_size=(1, 1), stride=(1, 1))
        )
      )
    )
    (1): ResBlock(
      (body): Sequential(
        (0): adder2d(
          (pointwise): Conv2d(64, 64, kernel_size=(1, 1), stride=(1, 1))
        )
        (1): ReLU(inplace=True)
        (2): adder2d(
          (pointwise): Conv2d(64, 64, kernel_size=(1, 1), stride=(1, 1))
        )
      )
    )
    (2): ResBlock(
      (body): Sequential(
        (0): adder2d(
          (pointwise): Conv2d(64, 64, kernel_size=(1, 1), stride=(1, 1))
        )
        (1): ReLU(inplace=True)
        (2): adder2d(
          (pointwise): Conv2d(64, 64, kernel_size=(1, 1), stride=(1, 1))
        )
      )
    )
    (3): ResBlock(
      (body): Sequential(
        (0): adder2d(
          (pointwise): Conv2d(64, 64, kernel_size=(1, 1), stride=(1, 1))
        )
        (1): ReLU(inplace=True)
        (2): adder2d(
          (pointwise): Conv2d(64, 64, kernel_size=(1, 1), stride=(1, 1))
        )
      )
    )
    (4): ResBlock(
      (body): Sequential(
        (0): adder2d(
          (pointwise): Conv2d(64, 64, kernel_size=(1, 1), stride=(1, 1))
        )
        (1): ReLU(inplace=True)
        (2): adder2d(
          (pointwise): Conv2d(64, 64, kernel_size=(1, 1), stride=(1, 1))
        )
      )
    )
    (5): ResBlock(
      (body): Sequential(
        (0): adder2d(
          (pointwise): Conv2d(64, 64, kernel_size=(1, 1), stride=(1, 1))
        )
        (1): ReLU(inplace=True)
        (2): adder2d(
          (pointwise): Conv2d(64, 64, kernel_size=(1, 1), stride=(1, 1))
        )
      )
    )
    (6): ResBlock(
      (body): Sequential(
        (0): adder2d(
          (pointwise): Conv2d(64, 64, kernel_size=(1, 1), stride=(1, 1))
        )
        (1): ReLU(inplace=True)
        (2): adder2d(
          (pointwise): Conv2d(64, 64, kernel_size=(1, 1), stride=(1, 1))
        )
      )
    )
    (7): ResBlock(
      (body): Sequential(
        (0): adder2d(
          (pointwise): Conv2d(64, 64, kernel_size=(1, 1), stride=(1, 1))
        )
        (1): ReLU(inplace=True)
        (2): adder2d(
          (pointwise): Conv2d(64, 64, kernel_size=(1, 1), stride=(1, 1))
        )
      )
    )
    (8): ResBlock(
      (body): Sequential(
        (0): adder2d(
          (pointwise): Conv2d(64, 64, kernel_size=(1, 1), stride=(1, 1))
        )
        (1): ReLU(inplace=True)
        (2): adder2d(
          (pointwise): Conv2d(64, 64, kernel_size=(1, 1), stride=(1, 1))
        )
      )
    )
    (9): ResBlock(
      (body): Sequential(
        (0): adder2d(
          (pointwise): Conv2d(64, 64, kernel_size=(1, 1), stride=(1, 1))
        )
        (1): ReLU(inplace=True)
        (2): adder2d(
          (pointwise): Conv2d(64, 64, kernel_size=(1, 1), stride=(1, 1))
        )
      )
    )
    (10): ResBlock(
      (body): Sequential(
        (0): adder2d(
          (pointwise): Conv2d(64, 64, kernel_size=(1, 1), stride=(1, 1))
        )
        (1): ReLU(inplace=True)
        (2): adder2d(
          (pointwise): Conv2d(64, 64, kernel_size=(1, 1), stride=(1, 1))
        )
      )
    )
    (11): ResBlock(
      (body): Sequential(
        (0): adder2d(
          (pointwise): Conv2d(64, 64, kernel_size=(1, 1), stride=(1, 1))
        )
        (1): ReLU(inplace=True)
        (2): adder2d(
          (pointwise): Conv2d(64, 64, kernel_size=(1, 1), stride=(1, 1))
        )
      )
    )
    (12): ResBlock(
      (body): Sequential(
        (0): adder2d(
          (pointwise): Conv2d(64, 64, kernel_size=(1, 1), stride=(1, 1))
        )
        (1): ReLU(inplace=True)
        (2): adder2d(
          (pointwise): Conv2d(64, 64, kernel_size=(1, 1), stride=(1, 1))
        )
      )
    )
    (13): ResBlock(
      (body): Sequential(
        (0): adder2d(
          (pointwise): Conv2d(64, 64, kernel_size=(1, 1), stride=(1, 1))
        )
        (1): ReLU(inplace=True)
        (2): adder2d(
          (pointwise): Conv2d(64, 64, kernel_size=(1, 1), stride=(1, 1))
        )
      )
    )
    (14): ResBlock(
      (body): Sequential(
        (0): adder2d(
          (pointwise): Conv2d(64, 64, kernel_size=(1, 1), stride=(1, 1))
        )
        (1): ReLU(inplace=True)
        (2): adder2d(
          (pointwise): Conv2d(64, 64, kernel_size=(1, 1), stride=(1, 1))
        )
      )
    )
    (15): ResBlock(
      (body): Sequential(
        (0): adder2d(
          (pointwise): Conv2d(64, 64, kernel_size=(1, 1), stride=(1, 1))
        )
        (1): ReLU(inplace=True)
        (2): adder2d(
          (pointwise): Conv2d(64, 64, kernel_size=(1, 1), stride=(1, 1))
        )
      )
    )
    (16): adder2d(
      (pointwise): Conv2d(64, 64, kernel_size=(1, 1), stride=(1, 1))
    )
  )
  (tail): Sequential(
    (0): Upsampler(
      (0): adder2d(
        (pointwise): Conv2d(64, 256, kernel_size=(1, 1), stride=(1, 1))
      )
      (1): PixelShuffle(upscale_factor=2)
    )
    (1): adder2d(
      (pointwise): Conv2d(64, 3, kernel_size=(1, 1), stride=(1, 1))
    )
  )
)
[Epoch 1]	Learning rate: 1.00e-4
EDSR(
  (sub_mean): MeanShift(3, 3, kernel_size=(1, 1), stride=(1, 1))
  (add_mean): MeanShift(3, 3, kernel_size=(1, 1), stride=(1, 1))
  (head): Sequential(
    (0): adder2d(
      (pointwise): Conv2d(3, 64, kernel_size=(1, 1), stride=(1, 1))
    )
  )
  (body): Sequential(
    (0): ResBlock(
      (body): Sequential(
        (0): adder2d(
          (pointwise): Conv2d(64, 64, kernel_size=(1, 1), stride=(1, 1))
        )
        (1): ReLU(inplace=True)
        (2): adder2d(
          (pointwise): Conv2d(64, 64, kernel_size=(1, 1), stride=(1, 1))
        )
      )
    )
    (1): ResBlock(
      (body): Sequential(
        (0): adder2d(
          (pointwise): Conv2d(64, 64, kernel_size=(1, 1), stride=(1, 1))
        )
        (1): ReLU(inplace=True)
        (2): adder2d(
          (pointwise): Conv2d(64, 64, kernel_size=(1, 1), stride=(1, 1))
        )
      )
    )
    (2): ResBlock(
      (body): Sequential(
        (0): adder2d(
          (pointwise): Conv2d(64, 64, kernel_size=(1, 1), stride=(1, 1))
        )
        (1): ReLU(inplace=True)
        (2): adder2d(
          (pointwise): Conv2d(64, 64, kernel_size=(1, 1), stride=(1, 1))
        )
      )
    )
    (3): ResBlock(
      (body): Sequential(
        (0): adder2d(
          (pointwise): Conv2d(64, 64, kernel_size=(1, 1), stride=(1, 1))
        )
        (1): ReLU(inplace=True)
        (2): adder2d(
          (pointwise): Conv2d(64, 64, kernel_size=(1, 1), stride=(1, 1))
        )
      )
    )
    (4): ResBlock(
      (body): Sequential(
        (0): adder2d(
          (pointwise): Conv2d(64, 64, kernel_size=(1, 1), stride=(1, 1))
        )
        (1): ReLU(inplace=True)
        (2): adder2d(
          (pointwise): Conv2d(64, 64, kernel_size=(1, 1), stride=(1, 1))
        )
      )
    )
    (5): ResBlock(
      (body): Sequential(
        (0): adder2d(
          (pointwise): Conv2d(64, 64, kernel_size=(1, 1), stride=(1, 1))
        )
        (1): ReLU(inplace=True)
        (2): adder2d(
          (pointwise): Conv2d(64, 64, kernel_size=(1, 1), stride=(1, 1))
        )
      )
    )
    (6): ResBlock(
      (body): Sequential(
        (0): adder2d(
          (pointwise): Conv2d(64, 64, kernel_size=(1, 1), stride=(1, 1))
        )
        (1): ReLU(inplace=True)
        (2): adder2d(
          (pointwise): Conv2d(64, 64, kernel_size=(1, 1), stride=(1, 1))
        )
      )
    )
    (7): ResBlock(
      (body): Sequential(
        (0): adder2d(
          (pointwise): Conv2d(64, 64, kernel_size=(1, 1), stride=(1, 1))
        )
        (1): ReLU(inplace=True)
        (2): adder2d(
          (pointwise): Conv2d(64, 64, kernel_size=(1, 1), stride=(1, 1))
        )
      )
    )
    (8): ResBlock(
      (body): Sequential(
        (0): adder2d(
          (pointwise): Conv2d(64, 64, kernel_size=(1, 1), stride=(1, 1))
        )
        (1): ReLU(inplace=True)
        (2): adder2d(
          (pointwise): Conv2d(64, 64, kernel_size=(1, 1), stride=(1, 1))
        )
      )
    )
    (9): ResBlock(
      (body): Sequential(
        (0): adder2d(
          (pointwise): Conv2d(64, 64, kernel_size=(1, 1), stride=(1, 1))
        )
        (1): ReLU(inplace=True)
        (2): adder2d(
          (pointwise): Conv2d(64, 64, kernel_size=(1, 1), stride=(1, 1))
        )
      )
    )
    (10): ResBlock(
      (body): Sequential(
        (0): adder2d(
          (pointwise): Conv2d(64, 64, kernel_size=(1, 1), stride=(1, 1))
        )
        (1): ReLU(inplace=True)
        (2): adder2d(
          (pointwise): Conv2d(64, 64, kernel_size=(1, 1), stride=(1, 1))
        )
      )
    )
    (11): ResBlock(
      (body): Sequential(
        (0): adder2d(
          (pointwise): Conv2d(64, 64, kernel_size=(1, 1), stride=(1, 1))
        )
        (1): ReLU(inplace=True)
        (2): adder2d(
          (pointwise): Conv2d(64, 64, kernel_size=(1, 1), stride=(1, 1))
        )
      )
    )
    (12): ResBlock(
      (body): Sequential(
        (0): adder2d(
          (pointwise): Conv2d(64, 64, kernel_size=(1, 1), stride=(1, 1))
        )
        (1): ReLU(inplace=True)
        (2): adder2d(
          (pointwise): Conv2d(64, 64, kernel_size=(1, 1), stride=(1, 1))
        )
      )
    )
    (13): ResBlock(
      (body): Sequential(
        (0): adder2d(
          (pointwise): Conv2d(64, 64, kernel_size=(1, 1), stride=(1, 1))
        )
        (1): ReLU(inplace=True)
        (2): adder2d(
          (pointwise): Conv2d(64, 64, kernel_size=(1, 1), stride=(1, 1))
        )
      )
    )
    (14): ResBlock(
      (body): Sequential(
        (0): adder2d(
          (pointwise): Conv2d(64, 64, kernel_size=(1, 1), stride=(1, 1))
        )
        (1): ReLU(inplace=True)
        (2): adder2d(
          (pointwise): Conv2d(64, 64, kernel_size=(1, 1), stride=(1, 1))
        )
      )
    )
    (15): ResBlock(
      (body): Sequential(
        (0): adder2d(
          (pointwise): Conv2d(64, 64, kernel_size=(1, 1), stride=(1, 1))
        )
        (1): ReLU(inplace=True)
        (2): adder2d(
          (pointwise): Conv2d(64, 64, kernel_size=(1, 1), stride=(1, 1))
        )
      )
    )
    (16): adder2d(
      (pointwise): Conv2d(64, 64, kernel_size=(1, 1), stride=(1, 1))
    )
  )
  (tail): Sequential(
    (0): Upsampler(
      (0): adder2d(
        (pointwise): Conv2d(64, 256, kernel_size=(1, 1), stride=(1, 1))
      )
      (1): PixelShuffle(upscale_factor=2)
    )
    (1): adder2d(
      (pointwise): Conv2d(64, 3, kernel_size=(1, 1), stride=(1, 1))
    )
  )
)
[Epoch 1]	Learning rate: 1.00e-4
EDSR(
  (sub_mean): MeanShift(3, 3, kernel_size=(1, 1), stride=(1, 1))
  (add_mean): MeanShift(3, 3, kernel_size=(1, 1), stride=(1, 1))
  (head): Sequential(
    (0): adder2d(
      (pointwise): Conv2d(3, 64, kernel_size=(1, 1), stride=(1, 1))
    )
  )
  (body): Sequential(
    (0): ResBlock(
      (body): Sequential(
        (0): adder2d(
          (pointwise): Conv2d(64, 64, kernel_size=(1, 1), stride=(1, 1))
        )
        (1): ReLU(inplace=True)
        (2): adder2d(
          (pointwise): Conv2d(64, 64, kernel_size=(1, 1), stride=(1, 1))
        )
      )
    )
    (1): ResBlock(
      (body): Sequential(
        (0): adder2d(
          (pointwise): Conv2d(64, 64, kernel_size=(1, 1), stride=(1, 1))
        )
        (1): ReLU(inplace=True)
        (2): adder2d(
          (pointwise): Conv2d(64, 64, kernel_size=(1, 1), stride=(1, 1))
        )
      )
    )
    (2): ResBlock(
      (body): Sequential(
        (0): adder2d(
          (pointwise): Conv2d(64, 64, kernel_size=(1, 1), stride=(1, 1))
        )
        (1): ReLU(inplace=True)
        (2): adder2d(
          (pointwise): Conv2d(64, 64, kernel_size=(1, 1), stride=(1, 1))
        )
      )
    )
    (3): ResBlock(
      (body): Sequential(
        (0): adder2d(
          (pointwise): Conv2d(64, 64, kernel_size=(1, 1), stride=(1, 1))
        )
        (1): ReLU(inplace=True)
        (2): adder2d(
          (pointwise): Conv2d(64, 64, kernel_size=(1, 1), stride=(1, 1))
        )
      )
    )
    (4): ResBlock(
      (body): Sequential(
        (0): adder2d(
          (pointwise): Conv2d(64, 64, kernel_size=(1, 1), stride=(1, 1))
        )
        (1): ReLU(inplace=True)
        (2): adder2d(
          (pointwise): Conv2d(64, 64, kernel_size=(1, 1), stride=(1, 1))
        )
      )
    )
    (5): ResBlock(
      (body): Sequential(
        (0): adder2d(
          (pointwise): Conv2d(64, 64, kernel_size=(1, 1), stride=(1, 1))
        )
        (1): ReLU(inplace=True)
        (2): adder2d(
          (pointwise): Conv2d(64, 64, kernel_size=(1, 1), stride=(1, 1))
        )
      )
    )
    (6): ResBlock(
      (body): Sequential(
        (0): adder2d(
          (pointwise): Conv2d(64, 64, kernel_size=(1, 1), stride=(1, 1))
        )
        (1): ReLU(inplace=True)
        (2): adder2d(
          (pointwise): Conv2d(64, 64, kernel_size=(1, 1), stride=(1, 1))
        )
      )
    )
    (7): ResBlock(
      (body): Sequential(
        (0): adder2d(
          (pointwise): Conv2d(64, 64, kernel_size=(1, 1), stride=(1, 1))
        )
        (1): ReLU(inplace=True)
        (2): adder2d(
          (pointwise): Conv2d(64, 64, kernel_size=(1, 1), stride=(1, 1))
        )
      )
    )
    (8): ResBlock(
      (body): Sequential(
        (0): adder2d(
          (pointwise): Conv2d(64, 64, kernel_size=(1, 1), stride=(1, 1))
        )
        (1): ReLU(inplace=True)
        (2): adder2d(
          (pointwise): Conv2d(64, 64, kernel_size=(1, 1), stride=(1, 1))
        )
      )
    )
    (9): ResBlock(
      (body): Sequential(
        (0): adder2d(
          (pointwise): Conv2d(64, 64, kernel_size=(1, 1), stride=(1, 1))
        )
        (1): ReLU(inplace=True)
        (2): adder2d(
          (pointwise): Conv2d(64, 64, kernel_size=(1, 1), stride=(1, 1))
        )
      )
    )
    (10): ResBlock(
      (body): Sequential(
        (0): adder2d(
          (pointwise): Conv2d(64, 64, kernel_size=(1, 1), stride=(1, 1))
        )
        (1): ReLU(inplace=True)
        (2): adder2d(
          (pointwise): Conv2d(64, 64, kernel_size=(1, 1), stride=(1, 1))
        )
      )
    )
    (11): ResBlock(
      (body): Sequential(
        (0): adder2d(
          (pointwise): Conv2d(64, 64, kernel_size=(1, 1), stride=(1, 1))
        )
        (1): ReLU(inplace=True)
        (2): adder2d(
          (pointwise): Conv2d(64, 64, kernel_size=(1, 1), stride=(1, 1))
        )
      )
    )
    (12): ResBlock(
      (body): Sequential(
        (0): adder2d(
          (pointwise): Conv2d(64, 64, kernel_size=(1, 1), stride=(1, 1))
        )
        (1): ReLU(inplace=True)
        (2): adder2d(
          (pointwise): Conv2d(64, 64, kernel_size=(1, 1), stride=(1, 1))
        )
      )
    )
    (13): ResBlock(
      (body): Sequential(
        (0): adder2d(
          (pointwise): Conv2d(64, 64, kernel_size=(1, 1), stride=(1, 1))
        )
        (1): ReLU(inplace=True)
        (2): adder2d(
          (pointwise): Conv2d(64, 64, kernel_size=(1, 1), stride=(1, 1))
        )
      )
    )
    (14): ResBlock(
      (body): Sequential(
        (0): adder2d(
          (pointwise): Conv2d(64, 64, kernel_size=(1, 1), stride=(1, 1))
        )
        (1): ReLU(inplace=True)
        (2): adder2d(
          (pointwise): Conv2d(64, 64, kernel_size=(1, 1), stride=(1, 1))
        )
      )
    )
    (15): ResBlock(
      (body): Sequential(
        (0): adder2d(
          (pointwise): Conv2d(64, 64, kernel_size=(1, 1), stride=(1, 1))
        )
        (1): ReLU(inplace=True)
        (2): adder2d(
          (pointwise): Conv2d(64, 64, kernel_size=(1, 1), stride=(1, 1))
        )
      )
    )
    (16): adder2d(
      (pointwise): Conv2d(64, 64, kernel_size=(1, 1), stride=(1, 1))
    )
  )
  (tail): Sequential(
    (0): Upsampler(
      (0): adder2d(
        (pointwise): Conv2d(64, 256, kernel_size=(1, 1), stride=(1, 1))
      )
      (1): PixelShuffle(upscale_factor=2)
    )
    (1): adder2d(
      (pointwise): Conv2d(64, 3, kernel_size=(1, 1), stride=(1, 1))
    )
  )
)
[Epoch 1]	Learning rate: 1.00e-4
EDSR(
  (sub_mean): MeanShift(3, 3, kernel_size=(1, 1), stride=(1, 1))
  (add_mean): MeanShift(3, 3, kernel_size=(1, 1), stride=(1, 1))
  (head): Sequential(
    (0): adder2d(
      (pointwise): Conv2d(3, 64, kernel_size=(1, 1), stride=(1, 1))
    )
  )
  (body): Sequential(
    (0): ResBlock(
      (body): Sequential(
        (0): adder2d(
          (pointwise): Conv2d(64, 64, kernel_size=(1, 1), stride=(1, 1))
        )
        (1): ReLU(inplace=True)
        (2): adder2d(
          (pointwise): Conv2d(64, 64, kernel_size=(1, 1), stride=(1, 1))
        )
      )
    )
    (1): ResBlock(
      (body): Sequential(
        (0): adder2d(
          (pointwise): Conv2d(64, 64, kernel_size=(1, 1), stride=(1, 1))
        )
        (1): ReLU(inplace=True)
        (2): adder2d(
          (pointwise): Conv2d(64, 64, kernel_size=(1, 1), stride=(1, 1))
        )
      )
    )
    (2): ResBlock(
      (body): Sequential(
        (0): adder2d(
          (pointwise): Conv2d(64, 64, kernel_size=(1, 1), stride=(1, 1))
        )
        (1): ReLU(inplace=True)
        (2): adder2d(
          (pointwise): Conv2d(64, 64, kernel_size=(1, 1), stride=(1, 1))
        )
      )
    )
    (3): ResBlock(
      (body): Sequential(
        (0): adder2d(
          (pointwise): Conv2d(64, 64, kernel_size=(1, 1), stride=(1, 1))
        )
        (1): ReLU(inplace=True)
        (2): adder2d(
          (pointwise): Conv2d(64, 64, kernel_size=(1, 1), stride=(1, 1))
        )
      )
    )
    (4): ResBlock(
      (body): Sequential(
        (0): adder2d(
          (pointwise): Conv2d(64, 64, kernel_size=(1, 1), stride=(1, 1))
        )
        (1): ReLU(inplace=True)
        (2): adder2d(
          (pointwise): Conv2d(64, 64, kernel_size=(1, 1), stride=(1, 1))
        )
      )
    )
    (5): ResBlock(
      (body): Sequential(
        (0): adder2d(
          (pointwise): Conv2d(64, 64, kernel_size=(1, 1), stride=(1, 1))
        )
        (1): ReLU(inplace=True)
        (2): adder2d(
          (pointwise): Conv2d(64, 64, kernel_size=(1, 1), stride=(1, 1))
        )
      )
    )
    (6): ResBlock(
      (body): Sequential(
        (0): adder2d(
          (pointwise): Conv2d(64, 64, kernel_size=(1, 1), stride=(1, 1))
        )
        (1): ReLU(inplace=True)
        (2): adder2d(
          (pointwise): Conv2d(64, 64, kernel_size=(1, 1), stride=(1, 1))
        )
      )
    )
    (7): ResBlock(
      (body): Sequential(
        (0): adder2d(
          (pointwise): Conv2d(64, 64, kernel_size=(1, 1), stride=(1, 1))
        )
        (1): ReLU(inplace=True)
        (2): adder2d(
          (pointwise): Conv2d(64, 64, kernel_size=(1, 1), stride=(1, 1))
        )
      )
    )
    (8): ResBlock(
      (body): Sequential(
        (0): adder2d(
          (pointwise): Conv2d(64, 64, kernel_size=(1, 1), stride=(1, 1))
        )
        (1): ReLU(inplace=True)
        (2): adder2d(
          (pointwise): Conv2d(64, 64, kernel_size=(1, 1), stride=(1, 1))
        )
      )
    )
    (9): ResBlock(
      (body): Sequential(
        (0): adder2d(
          (pointwise): Conv2d(64, 64, kernel_size=(1, 1), stride=(1, 1))
        )
        (1): ReLU(inplace=True)
        (2): adder2d(
          (pointwise): Conv2d(64, 64, kernel_size=(1, 1), stride=(1, 1))
        )
      )
    )
    (10): ResBlock(
      (body): Sequential(
        (0): adder2d(
          (pointwise): Conv2d(64, 64, kernel_size=(1, 1), stride=(1, 1))
        )
        (1): ReLU(inplace=True)
        (2): adder2d(
          (pointwise): Conv2d(64, 64, kernel_size=(1, 1), stride=(1, 1))
        )
      )
    )
    (11): ResBlock(
      (body): Sequential(
        (0): adder2d(
          (pointwise): Conv2d(64, 64, kernel_size=(1, 1), stride=(1, 1))
        )
        (1): ReLU(inplace=True)
        (2): adder2d(
          (pointwise): Conv2d(64, 64, kernel_size=(1, 1), stride=(1, 1))
        )
      )
    )
    (12): ResBlock(
      (body): Sequential(
        (0): adder2d(
          (pointwise): Conv2d(64, 64, kernel_size=(1, 1), stride=(1, 1))
        )
        (1): ReLU(inplace=True)
        (2): adder2d(
          (pointwise): Conv2d(64, 64, kernel_size=(1, 1), stride=(1, 1))
        )
      )
    )
    (13): ResBlock(
      (body): Sequential(
        (0): adder2d(
          (pointwise): Conv2d(64, 64, kernel_size=(1, 1), stride=(1, 1))
        )
        (1): ReLU(inplace=True)
        (2): adder2d(
          (pointwise): Conv2d(64, 64, kernel_size=(1, 1), stride=(1, 1))
        )
      )
    )
    (14): ResBlock(
      (body): Sequential(
        (0): adder2d(
          (pointwise): Conv2d(64, 64, kernel_size=(1, 1), stride=(1, 1))
        )
        (1): ReLU(inplace=True)
        (2): adder2d(
          (pointwise): Conv2d(64, 64, kernel_size=(1, 1), stride=(1, 1))
        )
      )
    )
    (15): ResBlock(
      (body): Sequential(
        (0): adder2d(
          (pointwise): Conv2d(64, 64, kernel_size=(1, 1), stride=(1, 1))
        )
        (1): ReLU(inplace=True)
        (2): adder2d(
          (pointwise): Conv2d(64, 64, kernel_size=(1, 1), stride=(1, 1))
        )
      )
    )
    (16): adder2d(
      (pointwise): Conv2d(64, 64, kernel_size=(1, 1), stride=(1, 1))
    )
  )
  (tail): Sequential(
    (0): Upsampler(
      (0): adder2d(
        (pointwise): Conv2d(64, 256, kernel_size=(1, 1), stride=(1, 1))
      )
      (1): PixelShuffle(upscale_factor=2)
    )
    (1): adder2d(
      (pointwise): Conv2d(64, 3, kernel_size=(1, 1), stride=(1, 1))
    )
  )
)
[Epoch 1]	Learning rate: 1.00e-4
[1600/16000]	[L1: 489939360.0000]	17.2+162.4s
[3200/16000]	[L1: 486925760.0000]	4.0+148.6s
EDSR(
  (sub_mean): MeanShift(3, 3, kernel_size=(1, 1), stride=(1, 1))
  (add_mean): MeanShift(3, 3, kernel_size=(1, 1), stride=(1, 1))
  (head): Sequential(
    (0): adder2d(
      (pointwise): Conv2d(3, 64, kernel_size=(1, 1), stride=(1, 1))
    )
  )
  (body): Sequential(
    (0): ResBlock(
      (body): Sequential(
        (0): adder2d(
          (pointwise): Conv2d(64, 64, kernel_size=(1, 1), stride=(1, 1))
        )
        (1): ReLU(inplace=True)
        (2): adder2d(
          (pointwise): Conv2d(64, 64, kernel_size=(1, 1), stride=(1, 1))
        )
      )
    )
    (1): ResBlock(
      (body): Sequential(
        (0): adder2d(
          (pointwise): Conv2d(64, 64, kernel_size=(1, 1), stride=(1, 1))
        )
        (1): ReLU(inplace=True)
        (2): adder2d(
          (pointwise): Conv2d(64, 64, kernel_size=(1, 1), stride=(1, 1))
        )
      )
    )
    (2): ResBlock(
      (body): Sequential(
        (0): adder2d(
          (pointwise): Conv2d(64, 64, kernel_size=(1, 1), stride=(1, 1))
        )
        (1): ReLU(inplace=True)
        (2): adder2d(
          (pointwise): Conv2d(64, 64, kernel_size=(1, 1), stride=(1, 1))
        )
      )
    )
    (3): ResBlock(
      (body): Sequential(
        (0): adder2d(
          (pointwise): Conv2d(64, 64, kernel_size=(1, 1), stride=(1, 1))
        )
        (1): ReLU(inplace=True)
        (2): adder2d(
          (pointwise): Conv2d(64, 64, kernel_size=(1, 1), stride=(1, 1))
        )
      )
    )
    (4): ResBlock(
      (body): Sequential(
        (0): adder2d(
          (pointwise): Conv2d(64, 64, kernel_size=(1, 1), stride=(1, 1))
        )
        (1): ReLU(inplace=True)
        (2): adder2d(
          (pointwise): Conv2d(64, 64, kernel_size=(1, 1), stride=(1, 1))
        )
      )
    )
    (5): ResBlock(
      (body): Sequential(
        (0): adder2d(
          (pointwise): Conv2d(64, 64, kernel_size=(1, 1), stride=(1, 1))
        )
        (1): ReLU(inplace=True)
        (2): adder2d(
          (pointwise): Conv2d(64, 64, kernel_size=(1, 1), stride=(1, 1))
        )
      )
    )
    (6): ResBlock(
      (body): Sequential(
        (0): adder2d(
          (pointwise): Conv2d(64, 64, kernel_size=(1, 1), stride=(1, 1))
        )
        (1): ReLU(inplace=True)
        (2): adder2d(
          (pointwise): Conv2d(64, 64, kernel_size=(1, 1), stride=(1, 1))
        )
      )
    )
    (7): ResBlock(
      (body): Sequential(
        (0): adder2d(
          (pointwise): Conv2d(64, 64, kernel_size=(1, 1), stride=(1, 1))
        )
        (1): ReLU(inplace=True)
        (2): adder2d(
          (pointwise): Conv2d(64, 64, kernel_size=(1, 1), stride=(1, 1))
        )
      )
    )
    (8): ResBlock(
      (body): Sequential(
        (0): adder2d(
          (pointwise): Conv2d(64, 64, kernel_size=(1, 1), stride=(1, 1))
        )
        (1): ReLU(inplace=True)
        (2): adder2d(
          (pointwise): Conv2d(64, 64, kernel_size=(1, 1), stride=(1, 1))
        )
      )
    )
    (9): ResBlock(
      (body): Sequential(
        (0): adder2d(
          (pointwise): Conv2d(64, 64, kernel_size=(1, 1), stride=(1, 1))
        )
        (1): ReLU(inplace=True)
        (2): adder2d(
          (pointwise): Conv2d(64, 64, kernel_size=(1, 1), stride=(1, 1))
        )
      )
    )
    (10): ResBlock(
      (body): Sequential(
        (0): adder2d(
          (pointwise): Conv2d(64, 64, kernel_size=(1, 1), stride=(1, 1))
        )
        (1): ReLU(inplace=True)
        (2): adder2d(
          (pointwise): Conv2d(64, 64, kernel_size=(1, 1), stride=(1, 1))
        )
      )
    )
    (11): ResBlock(
      (body): Sequential(
        (0): adder2d(
          (pointwise): Conv2d(64, 64, kernel_size=(1, 1), stride=(1, 1))
        )
        (1): ReLU(inplace=True)
        (2): adder2d(
          (pointwise): Conv2d(64, 64, kernel_size=(1, 1), stride=(1, 1))
        )
      )
    )
    (12): ResBlock(
      (body): Sequential(
        (0): adder2d(
          (pointwise): Conv2d(64, 64, kernel_size=(1, 1), stride=(1, 1))
        )
        (1): ReLU(inplace=True)
        (2): adder2d(
          (pointwise): Conv2d(64, 64, kernel_size=(1, 1), stride=(1, 1))
        )
      )
    )
    (13): ResBlock(
      (body): Sequential(
        (0): adder2d(
          (pointwise): Conv2d(64, 64, kernel_size=(1, 1), stride=(1, 1))
        )
        (1): ReLU(inplace=True)
        (2): adder2d(
          (pointwise): Conv2d(64, 64, kernel_size=(1, 1), stride=(1, 1))
        )
      )
    )
    (14): ResBlock(
      (body): Sequential(
        (0): adder2d(
          (pointwise): Conv2d(64, 64, kernel_size=(1, 1), stride=(1, 1))
        )
        (1): ReLU(inplace=True)
        (2): adder2d(
          (pointwise): Conv2d(64, 64, kernel_size=(1, 1), stride=(1, 1))
        )
      )
    )
    (15): ResBlock(
      (body): Sequential(
        (0): adder2d(
          (pointwise): Conv2d(64, 64, kernel_size=(1, 1), stride=(1, 1))
        )
        (1): ReLU(inplace=True)
        (2): adder2d(
          (pointwise): Conv2d(64, 64, kernel_size=(1, 1), stride=(1, 1))
        )
      )
    )
    (16): adder2d(
      (pointwise): Conv2d(64, 64, kernel_size=(1, 1), stride=(1, 1))
    )
  )
  (tail): Sequential(
    (0): Upsampler(
      (0): adder2d(
        (pointwise): Conv2d(64, 256, kernel_size=(1, 1), stride=(1, 1))
      )
      (1): PixelShuffle(upscale_factor=2)
    )
    (1): adder2d(
      (pointwise): Conv2d(64, 3, kernel_size=(1, 1), stride=(1, 1))
    )
  )
)
[Epoch 1]	Learning rate: 1.00e-4
EDSR(
  (sub_mean): MeanShift(3, 3, kernel_size=(1, 1), stride=(1, 1))
  (add_mean): MeanShift(3, 3, kernel_size=(1, 1), stride=(1, 1))
  (head): Sequential(
    (0): adder2d(
      (pointwise): Conv2d(3, 64, kernel_size=(1, 1), stride=(1, 1))
    )
  )
  (body): Sequential(
    (0): ResBlock(
      (body): Sequential(
        (0): adder2d(
          (pointwise): Conv2d(64, 64, kernel_size=(1, 1), stride=(1, 1), bias=False)
        )
        (1): ReLU(inplace=True)
        (2): adder2d(
          (pointwise): Conv2d(64, 64, kernel_size=(1, 1), stride=(1, 1), bias=False)
        )
      )
    )
    (1): ResBlock(
      (body): Sequential(
        (0): adder2d(
          (pointwise): Conv2d(64, 64, kernel_size=(1, 1), stride=(1, 1), bias=False)
        )
        (1): ReLU(inplace=True)
        (2): adder2d(
          (pointwise): Conv2d(64, 64, kernel_size=(1, 1), stride=(1, 1), bias=False)
        )
      )
    )
    (2): ResBlock(
      (body): Sequential(
        (0): adder2d(
          (pointwise): Conv2d(64, 64, kernel_size=(1, 1), stride=(1, 1), bias=False)
        )
        (1): ReLU(inplace=True)
        (2): adder2d(
          (pointwise): Conv2d(64, 64, kernel_size=(1, 1), stride=(1, 1), bias=False)
        )
      )
    )
    (3): ResBlock(
      (body): Sequential(
        (0): adder2d(
          (pointwise): Conv2d(64, 64, kernel_size=(1, 1), stride=(1, 1), bias=False)
        )
        (1): ReLU(inplace=True)
        (2): adder2d(
          (pointwise): Conv2d(64, 64, kernel_size=(1, 1), stride=(1, 1), bias=False)
        )
      )
    )
    (4): ResBlock(
      (body): Sequential(
        (0): adder2d(
          (pointwise): Conv2d(64, 64, kernel_size=(1, 1), stride=(1, 1), bias=False)
        )
        (1): ReLU(inplace=True)
        (2): adder2d(
          (pointwise): Conv2d(64, 64, kernel_size=(1, 1), stride=(1, 1), bias=False)
        )
      )
    )
    (5): ResBlock(
      (body): Sequential(
        (0): adder2d(
          (pointwise): Conv2d(64, 64, kernel_size=(1, 1), stride=(1, 1), bias=False)
        )
        (1): ReLU(inplace=True)
        (2): adder2d(
          (pointwise): Conv2d(64, 64, kernel_size=(1, 1), stride=(1, 1), bias=False)
        )
      )
    )
    (6): ResBlock(
      (body): Sequential(
        (0): adder2d(
          (pointwise): Conv2d(64, 64, kernel_size=(1, 1), stride=(1, 1), bias=False)
        )
        (1): ReLU(inplace=True)
        (2): adder2d(
          (pointwise): Conv2d(64, 64, kernel_size=(1, 1), stride=(1, 1), bias=False)
        )
      )
    )
    (7): ResBlock(
      (body): Sequential(
        (0): adder2d(
          (pointwise): Conv2d(64, 64, kernel_size=(1, 1), stride=(1, 1), bias=False)
        )
        (1): ReLU(inplace=True)
        (2): adder2d(
          (pointwise): Conv2d(64, 64, kernel_size=(1, 1), stride=(1, 1), bias=False)
        )
      )
    )
    (8): ResBlock(
      (body): Sequential(
        (0): adder2d(
          (pointwise): Conv2d(64, 64, kernel_size=(1, 1), stride=(1, 1), bias=False)
        )
        (1): ReLU(inplace=True)
        (2): adder2d(
          (pointwise): Conv2d(64, 64, kernel_size=(1, 1), stride=(1, 1), bias=False)
        )
      )
    )
    (9): ResBlock(
      (body): Sequential(
        (0): adder2d(
          (pointwise): Conv2d(64, 64, kernel_size=(1, 1), stride=(1, 1), bias=False)
        )
        (1): ReLU(inplace=True)
        (2): adder2d(
          (pointwise): Conv2d(64, 64, kernel_size=(1, 1), stride=(1, 1), bias=False)
        )
      )
    )
    (10): ResBlock(
      (body): Sequential(
        (0): adder2d(
          (pointwise): Conv2d(64, 64, kernel_size=(1, 1), stride=(1, 1), bias=False)
        )
        (1): ReLU(inplace=True)
        (2): adder2d(
          (pointwise): Conv2d(64, 64, kernel_size=(1, 1), stride=(1, 1), bias=False)
        )
      )
    )
    (11): ResBlock(
      (body): Sequential(
        (0): adder2d(
          (pointwise): Conv2d(64, 64, kernel_size=(1, 1), stride=(1, 1), bias=False)
        )
        (1): ReLU(inplace=True)
        (2): adder2d(
          (pointwise): Conv2d(64, 64, kernel_size=(1, 1), stride=(1, 1), bias=False)
        )
      )
    )
    (12): ResBlock(
      (body): Sequential(
        (0): adder2d(
          (pointwise): Conv2d(64, 64, kernel_size=(1, 1), stride=(1, 1), bias=False)
        )
        (1): ReLU(inplace=True)
        (2): adder2d(
          (pointwise): Conv2d(64, 64, kernel_size=(1, 1), stride=(1, 1), bias=False)
        )
      )
    )
    (13): ResBlock(
      (body): Sequential(
        (0): adder2d(
          (pointwise): Conv2d(64, 64, kernel_size=(1, 1), stride=(1, 1), bias=False)
        )
        (1): ReLU(inplace=True)
        (2): adder2d(
          (pointwise): Conv2d(64, 64, kernel_size=(1, 1), stride=(1, 1), bias=False)
        )
      )
    )
    (14): ResBlock(
      (body): Sequential(
        (0): adder2d(
          (pointwise): Conv2d(64, 64, kernel_size=(1, 1), stride=(1, 1), bias=False)
        )
        (1): ReLU(inplace=True)
        (2): adder2d(
          (pointwise): Conv2d(64, 64, kernel_size=(1, 1), stride=(1, 1), bias=False)
        )
      )
    )
    (15): ResBlock(
      (body): Sequential(
        (0): adder2d(
          (pointwise): Conv2d(64, 64, kernel_size=(1, 1), stride=(1, 1), bias=False)
        )
        (1): ReLU(inplace=True)
        (2): adder2d(
          (pointwise): Conv2d(64, 64, kernel_size=(1, 1), stride=(1, 1), bias=False)
        )
      )
    )
    (16): adder2d(
      (pointwise): Conv2d(64, 64, kernel_size=(1, 1), stride=(1, 1))
    )
  )
  (tail): Sequential(
    (0): Upsampler(
      (0): adder2d(
        (pointwise): Conv2d(64, 256, kernel_size=(1, 1), stride=(1, 1))
      )
      (1): PixelShuffle(upscale_factor=2)
    )
    (1): adder2d(
      (pointwise): Conv2d(64, 3, kernel_size=(1, 1), stride=(1, 1))
    )
  )
)
[Epoch 1]	Learning rate: 1.00e-4
EDSR(
  (sub_mean): MeanShift(3, 3, kernel_size=(1, 1), stride=(1, 1))
  (add_mean): MeanShift(3, 3, kernel_size=(1, 1), stride=(1, 1))
  (head): Sequential(
    (0): adder2d(
      (pointwise): Conv2d(3, 64, kernel_size=(1, 1), stride=(1, 1))
    )
  )
  (body): Sequential(
    (0): ResBlock(
      (body): Sequential(
        (0): adder2d(
          (pointwise): Conv2d(64, 64, kernel_size=(1, 1), stride=(1, 1), bias=False)
        )
        (1): ReLU(inplace=True)
        (2): adder2d(
          (pointwise): Conv2d(64, 64, kernel_size=(1, 1), stride=(1, 1), bias=False)
        )
      )
    )
    (1): ResBlock(
      (body): Sequential(
        (0): adder2d(
          (pointwise): Conv2d(64, 64, kernel_size=(1, 1), stride=(1, 1), bias=False)
        )
        (1): ReLU(inplace=True)
        (2): adder2d(
          (pointwise): Conv2d(64, 64, kernel_size=(1, 1), stride=(1, 1), bias=False)
        )
      )
    )
    (2): ResBlock(
      (body): Sequential(
        (0): adder2d(
          (pointwise): Conv2d(64, 64, kernel_size=(1, 1), stride=(1, 1), bias=False)
        )
        (1): ReLU(inplace=True)
        (2): adder2d(
          (pointwise): Conv2d(64, 64, kernel_size=(1, 1), stride=(1, 1), bias=False)
        )
      )
    )
    (3): ResBlock(
      (body): Sequential(
        (0): adder2d(
          (pointwise): Conv2d(64, 64, kernel_size=(1, 1), stride=(1, 1), bias=False)
        )
        (1): ReLU(inplace=True)
        (2): adder2d(
          (pointwise): Conv2d(64, 64, kernel_size=(1, 1), stride=(1, 1), bias=False)
        )
      )
    )
    (4): ResBlock(
      (body): Sequential(
        (0): adder2d(
          (pointwise): Conv2d(64, 64, kernel_size=(1, 1), stride=(1, 1), bias=False)
        )
        (1): ReLU(inplace=True)
        (2): adder2d(
          (pointwise): Conv2d(64, 64, kernel_size=(1, 1), stride=(1, 1), bias=False)
        )
      )
    )
    (5): ResBlock(
      (body): Sequential(
        (0): adder2d(
          (pointwise): Conv2d(64, 64, kernel_size=(1, 1), stride=(1, 1), bias=False)
        )
        (1): ReLU(inplace=True)
        (2): adder2d(
          (pointwise): Conv2d(64, 64, kernel_size=(1, 1), stride=(1, 1), bias=False)
        )
      )
    )
    (6): ResBlock(
      (body): Sequential(
        (0): adder2d(
          (pointwise): Conv2d(64, 64, kernel_size=(1, 1), stride=(1, 1), bias=False)
        )
        (1): ReLU(inplace=True)
        (2): adder2d(
          (pointwise): Conv2d(64, 64, kernel_size=(1, 1), stride=(1, 1), bias=False)
        )
      )
    )
    (7): ResBlock(
      (body): Sequential(
        (0): adder2d(
          (pointwise): Conv2d(64, 64, kernel_size=(1, 1), stride=(1, 1), bias=False)
        )
        (1): ReLU(inplace=True)
        (2): adder2d(
          (pointwise): Conv2d(64, 64, kernel_size=(1, 1), stride=(1, 1), bias=False)
        )
      )
    )
    (8): ResBlock(
      (body): Sequential(
        (0): adder2d(
          (pointwise): Conv2d(64, 64, kernel_size=(1, 1), stride=(1, 1), bias=False)
        )
        (1): ReLU(inplace=True)
        (2): adder2d(
          (pointwise): Conv2d(64, 64, kernel_size=(1, 1), stride=(1, 1), bias=False)
        )
      )
    )
    (9): ResBlock(
      (body): Sequential(
        (0): adder2d(
          (pointwise): Conv2d(64, 64, kernel_size=(1, 1), stride=(1, 1), bias=False)
        )
        (1): ReLU(inplace=True)
        (2): adder2d(
          (pointwise): Conv2d(64, 64, kernel_size=(1, 1), stride=(1, 1), bias=False)
        )
      )
    )
    (10): ResBlock(
      (body): Sequential(
        (0): adder2d(
          (pointwise): Conv2d(64, 64, kernel_size=(1, 1), stride=(1, 1), bias=False)
        )
        (1): ReLU(inplace=True)
        (2): adder2d(
          (pointwise): Conv2d(64, 64, kernel_size=(1, 1), stride=(1, 1), bias=False)
        )
      )
    )
    (11): ResBlock(
      (body): Sequential(
        (0): adder2d(
          (pointwise): Conv2d(64, 64, kernel_size=(1, 1), stride=(1, 1), bias=False)
        )
        (1): ReLU(inplace=True)
        (2): adder2d(
          (pointwise): Conv2d(64, 64, kernel_size=(1, 1), stride=(1, 1), bias=False)
        )
      )
    )
    (12): ResBlock(
      (body): Sequential(
        (0): adder2d(
          (pointwise): Conv2d(64, 64, kernel_size=(1, 1), stride=(1, 1), bias=False)
        )
        (1): ReLU(inplace=True)
        (2): adder2d(
          (pointwise): Conv2d(64, 64, kernel_size=(1, 1), stride=(1, 1), bias=False)
        )
      )
    )
    (13): ResBlock(
      (body): Sequential(
        (0): adder2d(
          (pointwise): Conv2d(64, 64, kernel_size=(1, 1), stride=(1, 1), bias=False)
        )
        (1): ReLU(inplace=True)
        (2): adder2d(
          (pointwise): Conv2d(64, 64, kernel_size=(1, 1), stride=(1, 1), bias=False)
        )
      )
    )
    (14): ResBlock(
      (body): Sequential(
        (0): adder2d(
          (pointwise): Conv2d(64, 64, kernel_size=(1, 1), stride=(1, 1), bias=False)
        )
        (1): ReLU(inplace=True)
        (2): adder2d(
          (pointwise): Conv2d(64, 64, kernel_size=(1, 1), stride=(1, 1), bias=False)
        )
      )
    )
    (15): ResBlock(
      (body): Sequential(
        (0): adder2d(
          (pointwise): Conv2d(64, 64, kernel_size=(1, 1), stride=(1, 1), bias=False)
        )
        (1): ReLU(inplace=True)
        (2): adder2d(
          (pointwise): Conv2d(64, 64, kernel_size=(1, 1), stride=(1, 1), bias=False)
        )
      )
    )
    (16): adder2d(
      (pointwise): Conv2d(64, 64, kernel_size=(1, 1), stride=(1, 1))
    )
  )
  (tail): Sequential(
    (0): Upsampler(
      (0): adder2d(
        (pointwise): Conv2d(64, 256, kernel_size=(1, 1), stride=(1, 1))
      )
      (1): PixelShuffle(upscale_factor=2)
    )
    (1): adder2d(
      (pointwise): Conv2d(64, 3, kernel_size=(1, 1), stride=(1, 1))
    )
  )
)
[Epoch 1]	Learning rate: 1.00e-4
EDSR(
  (sub_mean): MeanShift(3, 3, kernel_size=(1, 1), stride=(1, 1))
  (add_mean): MeanShift(3, 3, kernel_size=(1, 1), stride=(1, 1))
  (head): Sequential(
    (0): adder2d(
      (pointwise): Conv2d(3, 64, kernel_size=(1, 1), stride=(1, 1))
    )
  )
  (body): Sequential(
    (0): ResBlock(
      (body): Sequential(
        (0): adder2d(
          (pointwise): Conv2d(64, 64, kernel_size=(1, 1), stride=(1, 1), bias=False)
        )
        (1): ReLU(inplace=True)
        (2): adder2d(
          (pointwise): Conv2d(64, 64, kernel_size=(1, 1), stride=(1, 1), bias=False)
        )
      )
    )
    (1): ResBlock(
      (body): Sequential(
        (0): adder2d(
          (pointwise): Conv2d(64, 64, kernel_size=(1, 1), stride=(1, 1), bias=False)
        )
        (1): ReLU(inplace=True)
        (2): adder2d(
          (pointwise): Conv2d(64, 64, kernel_size=(1, 1), stride=(1, 1), bias=False)
        )
      )
    )
    (2): ResBlock(
      (body): Sequential(
        (0): adder2d(
          (pointwise): Conv2d(64, 64, kernel_size=(1, 1), stride=(1, 1), bias=False)
        )
        (1): ReLU(inplace=True)
        (2): adder2d(
          (pointwise): Conv2d(64, 64, kernel_size=(1, 1), stride=(1, 1), bias=False)
        )
      )
    )
    (3): ResBlock(
      (body): Sequential(
        (0): adder2d(
          (pointwise): Conv2d(64, 64, kernel_size=(1, 1), stride=(1, 1), bias=False)
        )
        (1): ReLU(inplace=True)
        (2): adder2d(
          (pointwise): Conv2d(64, 64, kernel_size=(1, 1), stride=(1, 1), bias=False)
        )
      )
    )
    (4): ResBlock(
      (body): Sequential(
        (0): adder2d(
          (pointwise): Conv2d(64, 64, kernel_size=(1, 1), stride=(1, 1), bias=False)
        )
        (1): ReLU(inplace=True)
        (2): adder2d(
          (pointwise): Conv2d(64, 64, kernel_size=(1, 1), stride=(1, 1), bias=False)
        )
      )
    )
    (5): ResBlock(
      (body): Sequential(
        (0): adder2d(
          (pointwise): Conv2d(64, 64, kernel_size=(1, 1), stride=(1, 1), bias=False)
        )
        (1): ReLU(inplace=True)
        (2): adder2d(
          (pointwise): Conv2d(64, 64, kernel_size=(1, 1), stride=(1, 1), bias=False)
        )
      )
    )
    (6): ResBlock(
      (body): Sequential(
        (0): adder2d(
          (pointwise): Conv2d(64, 64, kernel_size=(1, 1), stride=(1, 1), bias=False)
        )
        (1): ReLU(inplace=True)
        (2): adder2d(
          (pointwise): Conv2d(64, 64, kernel_size=(1, 1), stride=(1, 1), bias=False)
        )
      )
    )
    (7): ResBlock(
      (body): Sequential(
        (0): adder2d(
          (pointwise): Conv2d(64, 64, kernel_size=(1, 1), stride=(1, 1), bias=False)
        )
        (1): ReLU(inplace=True)
        (2): adder2d(
          (pointwise): Conv2d(64, 64, kernel_size=(1, 1), stride=(1, 1), bias=False)
        )
      )
    )
    (8): ResBlock(
      (body): Sequential(
        (0): adder2d(
          (pointwise): Conv2d(64, 64, kernel_size=(1, 1), stride=(1, 1), bias=False)
        )
        (1): ReLU(inplace=True)
        (2): adder2d(
          (pointwise): Conv2d(64, 64, kernel_size=(1, 1), stride=(1, 1), bias=False)
        )
      )
    )
    (9): ResBlock(
      (body): Sequential(
        (0): adder2d(
          (pointwise): Conv2d(64, 64, kernel_size=(1, 1), stride=(1, 1), bias=False)
        )
        (1): ReLU(inplace=True)
        (2): adder2d(
          (pointwise): Conv2d(64, 64, kernel_size=(1, 1), stride=(1, 1), bias=False)
        )
      )
    )
    (10): ResBlock(
      (body): Sequential(
        (0): adder2d(
          (pointwise): Conv2d(64, 64, kernel_size=(1, 1), stride=(1, 1), bias=False)
        )
        (1): ReLU(inplace=True)
        (2): adder2d(
          (pointwise): Conv2d(64, 64, kernel_size=(1, 1), stride=(1, 1), bias=False)
        )
      )
    )
    (11): ResBlock(
      (body): Sequential(
        (0): adder2d(
          (pointwise): Conv2d(64, 64, kernel_size=(1, 1), stride=(1, 1), bias=False)
        )
        (1): ReLU(inplace=True)
        (2): adder2d(
          (pointwise): Conv2d(64, 64, kernel_size=(1, 1), stride=(1, 1), bias=False)
        )
      )
    )
    (12): ResBlock(
      (body): Sequential(
        (0): adder2d(
          (pointwise): Conv2d(64, 64, kernel_size=(1, 1), stride=(1, 1), bias=False)
        )
        (1): ReLU(inplace=True)
        (2): adder2d(
          (pointwise): Conv2d(64, 64, kernel_size=(1, 1), stride=(1, 1), bias=False)
        )
      )
    )
    (13): ResBlock(
      (body): Sequential(
        (0): adder2d(
          (pointwise): Conv2d(64, 64, kernel_size=(1, 1), stride=(1, 1), bias=False)
        )
        (1): ReLU(inplace=True)
        (2): adder2d(
          (pointwise): Conv2d(64, 64, kernel_size=(1, 1), stride=(1, 1), bias=False)
        )
      )
    )
    (14): ResBlock(
      (body): Sequential(
        (0): adder2d(
          (pointwise): Conv2d(64, 64, kernel_size=(1, 1), stride=(1, 1), bias=False)
        )
        (1): ReLU(inplace=True)
        (2): adder2d(
          (pointwise): Conv2d(64, 64, kernel_size=(1, 1), stride=(1, 1), bias=False)
        )
      )
    )
    (15): ResBlock(
      (body): Sequential(
        (0): adder2d(
          (pointwise): Conv2d(64, 64, kernel_size=(1, 1), stride=(1, 1), bias=False)
        )
        (1): ReLU(inplace=True)
        (2): adder2d(
          (pointwise): Conv2d(64, 64, kernel_size=(1, 1), stride=(1, 1), bias=False)
        )
      )
    )
    (16): adder2d(
      (pointwise): Conv2d(64, 64, kernel_size=(1, 1), stride=(1, 1))
    )
  )
  (tail): Sequential(
    (0): Upsampler(
      (0): adder2d(
        (pointwise): Conv2d(64, 256, kernel_size=(1, 1), stride=(1, 1))
      )
      (1): PixelShuffle(upscale_factor=2)
    )
    (1): adder2d(
      (pointwise): Conv2d(64, 3, kernel_size=(1, 1), stride=(1, 1))
    )
  )
)
[Epoch 1]	Learning rate: 1.00e-4
EDSR(
  (sub_mean): MeanShift(3, 3, kernel_size=(1, 1), stride=(1, 1))
  (add_mean): MeanShift(3, 3, kernel_size=(1, 1), stride=(1, 1))
  (head): Sequential(
    (0): adder2d(
      (pointwise): Conv2d(3, 64, kernel_size=(1, 1), stride=(1, 1))
    )
  )
  (body): Sequential(
    (0): ResBlock(
      (body): Sequential(
        (0): adder2d(
          (pointwise): Conv2d(64, 64, kernel_size=(1, 1), stride=(1, 1))
        )
        (1): ReLU(inplace=True)
        (2): adder2d(
          (pointwise): Conv2d(64, 64, kernel_size=(1, 1), stride=(1, 1))
        )
      )
    )
    (1): ResBlock(
      (body): Sequential(
        (0): adder2d(
          (pointwise): Conv2d(64, 64, kernel_size=(1, 1), stride=(1, 1))
        )
        (1): ReLU(inplace=True)
        (2): adder2d(
          (pointwise): Conv2d(64, 64, kernel_size=(1, 1), stride=(1, 1))
        )
      )
    )
    (2): ResBlock(
      (body): Sequential(
        (0): adder2d(
          (pointwise): Conv2d(64, 64, kernel_size=(1, 1), stride=(1, 1))
        )
        (1): ReLU(inplace=True)
        (2): adder2d(
          (pointwise): Conv2d(64, 64, kernel_size=(1, 1), stride=(1, 1))
        )
      )
    )
    (3): ResBlock(
      (body): Sequential(
        (0): adder2d(
          (pointwise): Conv2d(64, 64, kernel_size=(1, 1), stride=(1, 1))
        )
        (1): ReLU(inplace=True)
        (2): adder2d(
          (pointwise): Conv2d(64, 64, kernel_size=(1, 1), stride=(1, 1))
        )
      )
    )
    (4): ResBlock(
      (body): Sequential(
        (0): adder2d(
          (pointwise): Conv2d(64, 64, kernel_size=(1, 1), stride=(1, 1))
        )
        (1): ReLU(inplace=True)
        (2): adder2d(
          (pointwise): Conv2d(64, 64, kernel_size=(1, 1), stride=(1, 1))
        )
      )
    )
    (5): ResBlock(
      (body): Sequential(
        (0): adder2d(
          (pointwise): Conv2d(64, 64, kernel_size=(1, 1), stride=(1, 1))
        )
        (1): ReLU(inplace=True)
        (2): adder2d(
          (pointwise): Conv2d(64, 64, kernel_size=(1, 1), stride=(1, 1))
        )
      )
    )
    (6): ResBlock(
      (body): Sequential(
        (0): adder2d(
          (pointwise): Conv2d(64, 64, kernel_size=(1, 1), stride=(1, 1))
        )
        (1): ReLU(inplace=True)
        (2): adder2d(
          (pointwise): Conv2d(64, 64, kernel_size=(1, 1), stride=(1, 1))
        )
      )
    )
    (7): ResBlock(
      (body): Sequential(
        (0): adder2d(
          (pointwise): Conv2d(64, 64, kernel_size=(1, 1), stride=(1, 1))
        )
        (1): ReLU(inplace=True)
        (2): adder2d(
          (pointwise): Conv2d(64, 64, kernel_size=(1, 1), stride=(1, 1))
        )
      )
    )
    (8): ResBlock(
      (body): Sequential(
        (0): adder2d(
          (pointwise): Conv2d(64, 64, kernel_size=(1, 1), stride=(1, 1))
        )
        (1): ReLU(inplace=True)
        (2): adder2d(
          (pointwise): Conv2d(64, 64, kernel_size=(1, 1), stride=(1, 1))
        )
      )
    )
    (9): ResBlock(
      (body): Sequential(
        (0): adder2d(
          (pointwise): Conv2d(64, 64, kernel_size=(1, 1), stride=(1, 1))
        )
        (1): ReLU(inplace=True)
        (2): adder2d(
          (pointwise): Conv2d(64, 64, kernel_size=(1, 1), stride=(1, 1))
        )
      )
    )
    (10): ResBlock(
      (body): Sequential(
        (0): adder2d(
          (pointwise): Conv2d(64, 64, kernel_size=(1, 1), stride=(1, 1))
        )
        (1): ReLU(inplace=True)
        (2): adder2d(
          (pointwise): Conv2d(64, 64, kernel_size=(1, 1), stride=(1, 1))
        )
      )
    )
    (11): ResBlock(
      (body): Sequential(
        (0): adder2d(
          (pointwise): Conv2d(64, 64, kernel_size=(1, 1), stride=(1, 1))
        )
        (1): ReLU(inplace=True)
        (2): adder2d(
          (pointwise): Conv2d(64, 64, kernel_size=(1, 1), stride=(1, 1))
        )
      )
    )
    (12): ResBlock(
      (body): Sequential(
        (0): adder2d(
          (pointwise): Conv2d(64, 64, kernel_size=(1, 1), stride=(1, 1))
        )
        (1): ReLU(inplace=True)
        (2): adder2d(
          (pointwise): Conv2d(64, 64, kernel_size=(1, 1), stride=(1, 1))
        )
      )
    )
    (13): ResBlock(
      (body): Sequential(
        (0): adder2d(
          (pointwise): Conv2d(64, 64, kernel_size=(1, 1), stride=(1, 1))
        )
        (1): ReLU(inplace=True)
        (2): adder2d(
          (pointwise): Conv2d(64, 64, kernel_size=(1, 1), stride=(1, 1))
        )
      )
    )
    (14): ResBlock(
      (body): Sequential(
        (0): adder2d(
          (pointwise): Conv2d(64, 64, kernel_size=(1, 1), stride=(1, 1))
        )
        (1): ReLU(inplace=True)
        (2): adder2d(
          (pointwise): Conv2d(64, 64, kernel_size=(1, 1), stride=(1, 1))
        )
      )
    )
    (15): ResBlock(
      (body): Sequential(
        (0): adder2d(
          (pointwise): Conv2d(64, 64, kernel_size=(1, 1), stride=(1, 1))
        )
        (1): ReLU(inplace=True)
        (2): adder2d(
          (pointwise): Conv2d(64, 64, kernel_size=(1, 1), stride=(1, 1))
        )
      )
    )
    (16): adder2d(
      (pointwise): Conv2d(64, 64, kernel_size=(1, 1), stride=(1, 1))
    )
  )
  (tail): Sequential(
    (0): Upsampler(
      (0): adder2d(
        (pointwise): Conv2d(64, 256, kernel_size=(1, 1), stride=(1, 1))
      )
      (1): PixelShuffle(upscale_factor=2)
    )
    (1): adder2d(
      (pointwise): Conv2d(64, 3, kernel_size=(1, 1), stride=(1, 1))
    )
  )
)
[Epoch 1]	Learning rate: 1.00e-4
EDSR(
  (sub_mean): MeanShift(3, 3, kernel_size=(1, 1), stride=(1, 1))
  (add_mean): MeanShift(3, 3, kernel_size=(1, 1), stride=(1, 1))
  (head): Sequential(
    (0): adder2d(
      (pointwise): Conv2d(3, 64, kernel_size=(1, 1), stride=(1, 1))
    )
  )
  (body): Sequential(
    (0): ResBlock(
      (body): Sequential(
        (0): adder2d(
          (pointwise): Conv2d(64, 64, kernel_size=(1, 1), stride=(1, 1))
        )
        (1): ReLU(inplace=True)
        (2): adder2d(
          (pointwise): Conv2d(64, 64, kernel_size=(1, 1), stride=(1, 1))
        )
      )
    )
    (1): ResBlock(
      (body): Sequential(
        (0): adder2d(
          (pointwise): Conv2d(64, 64, kernel_size=(1, 1), stride=(1, 1))
        )
        (1): ReLU(inplace=True)
        (2): adder2d(
          (pointwise): Conv2d(64, 64, kernel_size=(1, 1), stride=(1, 1))
        )
      )
    )
    (2): ResBlock(
      (body): Sequential(
        (0): adder2d(
          (pointwise): Conv2d(64, 64, kernel_size=(1, 1), stride=(1, 1))
        )
        (1): ReLU(inplace=True)
        (2): adder2d(
          (pointwise): Conv2d(64, 64, kernel_size=(1, 1), stride=(1, 1))
        )
      )
    )
    (3): ResBlock(
      (body): Sequential(
        (0): adder2d(
          (pointwise): Conv2d(64, 64, kernel_size=(1, 1), stride=(1, 1))
        )
        (1): ReLU(inplace=True)
        (2): adder2d(
          (pointwise): Conv2d(64, 64, kernel_size=(1, 1), stride=(1, 1))
        )
      )
    )
    (4): ResBlock(
      (body): Sequential(
        (0): adder2d(
          (pointwise): Conv2d(64, 64, kernel_size=(1, 1), stride=(1, 1))
        )
        (1): ReLU(inplace=True)
        (2): adder2d(
          (pointwise): Conv2d(64, 64, kernel_size=(1, 1), stride=(1, 1))
        )
      )
    )
    (5): ResBlock(
      (body): Sequential(
        (0): adder2d(
          (pointwise): Conv2d(64, 64, kernel_size=(1, 1), stride=(1, 1))
        )
        (1): ReLU(inplace=True)
        (2): adder2d(
          (pointwise): Conv2d(64, 64, kernel_size=(1, 1), stride=(1, 1))
        )
      )
    )
    (6): ResBlock(
      (body): Sequential(
        (0): adder2d(
          (pointwise): Conv2d(64, 64, kernel_size=(1, 1), stride=(1, 1))
        )
        (1): ReLU(inplace=True)
        (2): adder2d(
          (pointwise): Conv2d(64, 64, kernel_size=(1, 1), stride=(1, 1))
        )
      )
    )
    (7): ResBlock(
      (body): Sequential(
        (0): adder2d(
          (pointwise): Conv2d(64, 64, kernel_size=(1, 1), stride=(1, 1))
        )
        (1): ReLU(inplace=True)
        (2): adder2d(
          (pointwise): Conv2d(64, 64, kernel_size=(1, 1), stride=(1, 1))
        )
      )
    )
    (8): ResBlock(
      (body): Sequential(
        (0): adder2d(
          (pointwise): Conv2d(64, 64, kernel_size=(1, 1), stride=(1, 1))
        )
        (1): ReLU(inplace=True)
        (2): adder2d(
          (pointwise): Conv2d(64, 64, kernel_size=(1, 1), stride=(1, 1))
        )
      )
    )
    (9): ResBlock(
      (body): Sequential(
        (0): adder2d(
          (pointwise): Conv2d(64, 64, kernel_size=(1, 1), stride=(1, 1))
        )
        (1): ReLU(inplace=True)
        (2): adder2d(
          (pointwise): Conv2d(64, 64, kernel_size=(1, 1), stride=(1, 1))
        )
      )
    )
    (10): ResBlock(
      (body): Sequential(
        (0): adder2d(
          (pointwise): Conv2d(64, 64, kernel_size=(1, 1), stride=(1, 1))
        )
        (1): ReLU(inplace=True)
        (2): adder2d(
          (pointwise): Conv2d(64, 64, kernel_size=(1, 1), stride=(1, 1))
        )
      )
    )
    (11): ResBlock(
      (body): Sequential(
        (0): adder2d(
          (pointwise): Conv2d(64, 64, kernel_size=(1, 1), stride=(1, 1))
        )
        (1): ReLU(inplace=True)
        (2): adder2d(
          (pointwise): Conv2d(64, 64, kernel_size=(1, 1), stride=(1, 1))
        )
      )
    )
    (12): ResBlock(
      (body): Sequential(
        (0): adder2d(
          (pointwise): Conv2d(64, 64, kernel_size=(1, 1), stride=(1, 1))
        )
        (1): ReLU(inplace=True)
        (2): adder2d(
          (pointwise): Conv2d(64, 64, kernel_size=(1, 1), stride=(1, 1))
        )
      )
    )
    (13): ResBlock(
      (body): Sequential(
        (0): adder2d(
          (pointwise): Conv2d(64, 64, kernel_size=(1, 1), stride=(1, 1))
        )
        (1): ReLU(inplace=True)
        (2): adder2d(
          (pointwise): Conv2d(64, 64, kernel_size=(1, 1), stride=(1, 1))
        )
      )
    )
    (14): ResBlock(
      (body): Sequential(
        (0): adder2d(
          (pointwise): Conv2d(64, 64, kernel_size=(1, 1), stride=(1, 1))
        )
        (1): ReLU(inplace=True)
        (2): adder2d(
          (pointwise): Conv2d(64, 64, kernel_size=(1, 1), stride=(1, 1))
        )
      )
    )
    (15): ResBlock(
      (body): Sequential(
        (0): adder2d(
          (pointwise): Conv2d(64, 64, kernel_size=(1, 1), stride=(1, 1))
        )
        (1): ReLU(inplace=True)
        (2): adder2d(
          (pointwise): Conv2d(64, 64, kernel_size=(1, 1), stride=(1, 1))
        )
      )
    )
    (16): adder2d(
      (pointwise): Conv2d(64, 64, kernel_size=(1, 1), stride=(1, 1))
    )
  )
  (tail): Sequential(
    (0): Upsampler(
      (0): adder2d(
        (pointwise): Conv2d(64, 256, kernel_size=(1, 1), stride=(1, 1))
      )
      (1): PixelShuffle(upscale_factor=2)
    )
    (1): adder2d(
      (pointwise): Conv2d(64, 3, kernel_size=(1, 1), stride=(1, 1))
    )
  )
)
[Epoch 1]	Learning rate: 1.00e-4
EDSR(
  (sub_mean): MeanShift(3, 3, kernel_size=(1, 1), stride=(1, 1))
  (add_mean): MeanShift(3, 3, kernel_size=(1, 1), stride=(1, 1))
  (head): Sequential(
    (0): adder2d(
      (pointwise): Conv2d(3, 64, kernel_size=(1, 1), stride=(1, 1))
    )
  )
  (body): Sequential(
    (0): ResBlock(
      (body): Sequential(
        (0): adder2d(
          (pointwise): Conv2d(64, 64, kernel_size=(1, 1), stride=(1, 1))
        )
        (1): ReLU(inplace=True)
        (2): adder2d(
          (pointwise): Conv2d(64, 64, kernel_size=(1, 1), stride=(1, 1))
        )
      )
    )
    (1): ResBlock(
      (body): Sequential(
        (0): adder2d(
          (pointwise): Conv2d(64, 64, kernel_size=(1, 1), stride=(1, 1))
        )
        (1): ReLU(inplace=True)
        (2): adder2d(
          (pointwise): Conv2d(64, 64, kernel_size=(1, 1), stride=(1, 1))
        )
      )
    )
    (2): ResBlock(
      (body): Sequential(
        (0): adder2d(
          (pointwise): Conv2d(64, 64, kernel_size=(1, 1), stride=(1, 1))
        )
        (1): ReLU(inplace=True)
        (2): adder2d(
          (pointwise): Conv2d(64, 64, kernel_size=(1, 1), stride=(1, 1))
        )
      )
    )
    (3): ResBlock(
      (body): Sequential(
        (0): adder2d(
          (pointwise): Conv2d(64, 64, kernel_size=(1, 1), stride=(1, 1))
        )
        (1): ReLU(inplace=True)
        (2): adder2d(
          (pointwise): Conv2d(64, 64, kernel_size=(1, 1), stride=(1, 1))
        )
      )
    )
    (4): ResBlock(
      (body): Sequential(
        (0): adder2d(
          (pointwise): Conv2d(64, 64, kernel_size=(1, 1), stride=(1, 1))
        )
        (1): ReLU(inplace=True)
        (2): adder2d(
          (pointwise): Conv2d(64, 64, kernel_size=(1, 1), stride=(1, 1))
        )
      )
    )
    (5): ResBlock(
      (body): Sequential(
        (0): adder2d(
          (pointwise): Conv2d(64, 64, kernel_size=(1, 1), stride=(1, 1))
        )
        (1): ReLU(inplace=True)
        (2): adder2d(
          (pointwise): Conv2d(64, 64, kernel_size=(1, 1), stride=(1, 1))
        )
      )
    )
    (6): ResBlock(
      (body): Sequential(
        (0): adder2d(
          (pointwise): Conv2d(64, 64, kernel_size=(1, 1), stride=(1, 1))
        )
        (1): ReLU(inplace=True)
        (2): adder2d(
          (pointwise): Conv2d(64, 64, kernel_size=(1, 1), stride=(1, 1))
        )
      )
    )
    (7): ResBlock(
      (body): Sequential(
        (0): adder2d(
          (pointwise): Conv2d(64, 64, kernel_size=(1, 1), stride=(1, 1))
        )
        (1): ReLU(inplace=True)
        (2): adder2d(
          (pointwise): Conv2d(64, 64, kernel_size=(1, 1), stride=(1, 1))
        )
      )
    )
    (8): ResBlock(
      (body): Sequential(
        (0): adder2d(
          (pointwise): Conv2d(64, 64, kernel_size=(1, 1), stride=(1, 1))
        )
        (1): ReLU(inplace=True)
        (2): adder2d(
          (pointwise): Conv2d(64, 64, kernel_size=(1, 1), stride=(1, 1))
        )
      )
    )
    (9): ResBlock(
      (body): Sequential(
        (0): adder2d(
          (pointwise): Conv2d(64, 64, kernel_size=(1, 1), stride=(1, 1))
        )
        (1): ReLU(inplace=True)
        (2): adder2d(
          (pointwise): Conv2d(64, 64, kernel_size=(1, 1), stride=(1, 1))
        )
      )
    )
    (10): ResBlock(
      (body): Sequential(
        (0): adder2d(
          (pointwise): Conv2d(64, 64, kernel_size=(1, 1), stride=(1, 1))
        )
        (1): ReLU(inplace=True)
        (2): adder2d(
          (pointwise): Conv2d(64, 64, kernel_size=(1, 1), stride=(1, 1))
        )
      )
    )
    (11): ResBlock(
      (body): Sequential(
        (0): adder2d(
          (pointwise): Conv2d(64, 64, kernel_size=(1, 1), stride=(1, 1))
        )
        (1): ReLU(inplace=True)
        (2): adder2d(
          (pointwise): Conv2d(64, 64, kernel_size=(1, 1), stride=(1, 1))
        )
      )
    )
    (12): ResBlock(
      (body): Sequential(
        (0): adder2d(
          (pointwise): Conv2d(64, 64, kernel_size=(1, 1), stride=(1, 1))
        )
        (1): ReLU(inplace=True)
        (2): adder2d(
          (pointwise): Conv2d(64, 64, kernel_size=(1, 1), stride=(1, 1))
        )
      )
    )
    (13): ResBlock(
      (body): Sequential(
        (0): adder2d(
          (pointwise): Conv2d(64, 64, kernel_size=(1, 1), stride=(1, 1))
        )
        (1): ReLU(inplace=True)
        (2): adder2d(
          (pointwise): Conv2d(64, 64, kernel_size=(1, 1), stride=(1, 1))
        )
      )
    )
    (14): ResBlock(
      (body): Sequential(
        (0): adder2d(
          (pointwise): Conv2d(64, 64, kernel_size=(1, 1), stride=(1, 1))
        )
        (1): ReLU(inplace=True)
        (2): adder2d(
          (pointwise): Conv2d(64, 64, kernel_size=(1, 1), stride=(1, 1))
        )
      )
    )
    (15): ResBlock(
      (body): Sequential(
        (0): adder2d(
          (pointwise): Conv2d(64, 64, kernel_size=(1, 1), stride=(1, 1))
        )
        (1): ReLU(inplace=True)
        (2): adder2d(
          (pointwise): Conv2d(64, 64, kernel_size=(1, 1), stride=(1, 1))
        )
      )
    )
    (16): adder2d(
      (pointwise): Conv2d(64, 64, kernel_size=(1, 1), stride=(1, 1))
    )
  )
  (tail): Sequential(
    (0): Upsampler(
      (0): adder2d(
        (pointwise): Conv2d(64, 256, kernel_size=(1, 1), stride=(1, 1))
      )
      (1): PixelShuffle(upscale_factor=2)
    )
    (1): adder2d(
      (pointwise): Conv2d(64, 3, kernel_size=(1, 1), stride=(1, 1))
    )
  )
)
[Epoch 1]	Learning rate: 1.00e-4
EDSR(
  (sub_mean): MeanShift(3, 3, kernel_size=(1, 1), stride=(1, 1))
  (add_mean): MeanShift(3, 3, kernel_size=(1, 1), stride=(1, 1))
  (head): Sequential(
    (0): adder2d(
      (pointwise): Conv2d(3, 64, kernel_size=(1, 1), stride=(1, 1))
    )
  )
  (body): Sequential(
    (0): ResBlock(
      (body): Sequential(
        (0): adder2d(
          (pointwise): Conv2d(64, 64, kernel_size=(1, 1), stride=(1, 1))
        )
        (1): ReLU(inplace=True)
        (2): adder2d(
          (pointwise): Conv2d(64, 64, kernel_size=(1, 1), stride=(1, 1))
        )
      )
    )
    (1): ResBlock(
      (body): Sequential(
        (0): adder2d(
          (pointwise): Conv2d(64, 64, kernel_size=(1, 1), stride=(1, 1))
        )
        (1): ReLU(inplace=True)
        (2): adder2d(
          (pointwise): Conv2d(64, 64, kernel_size=(1, 1), stride=(1, 1))
        )
      )
    )
    (2): ResBlock(
      (body): Sequential(
        (0): adder2d(
          (pointwise): Conv2d(64, 64, kernel_size=(1, 1), stride=(1, 1))
        )
        (1): ReLU(inplace=True)
        (2): adder2d(
          (pointwise): Conv2d(64, 64, kernel_size=(1, 1), stride=(1, 1))
        )
      )
    )
    (3): ResBlock(
      (body): Sequential(
        (0): adder2d(
          (pointwise): Conv2d(64, 64, kernel_size=(1, 1), stride=(1, 1))
        )
        (1): ReLU(inplace=True)
        (2): adder2d(
          (pointwise): Conv2d(64, 64, kernel_size=(1, 1), stride=(1, 1))
        )
      )
    )
    (4): ResBlock(
      (body): Sequential(
        (0): adder2d(
          (pointwise): Conv2d(64, 64, kernel_size=(1, 1), stride=(1, 1))
        )
        (1): ReLU(inplace=True)
        (2): adder2d(
          (pointwise): Conv2d(64, 64, kernel_size=(1, 1), stride=(1, 1))
        )
      )
    )
    (5): ResBlock(
      (body): Sequential(
        (0): adder2d(
          (pointwise): Conv2d(64, 64, kernel_size=(1, 1), stride=(1, 1))
        )
        (1): ReLU(inplace=True)
        (2): adder2d(
          (pointwise): Conv2d(64, 64, kernel_size=(1, 1), stride=(1, 1))
        )
      )
    )
    (6): ResBlock(
      (body): Sequential(
        (0): adder2d(
          (pointwise): Conv2d(64, 64, kernel_size=(1, 1), stride=(1, 1))
        )
        (1): ReLU(inplace=True)
        (2): adder2d(
          (pointwise): Conv2d(64, 64, kernel_size=(1, 1), stride=(1, 1))
        )
      )
    )
    (7): ResBlock(
      (body): Sequential(
        (0): adder2d(
          (pointwise): Conv2d(64, 64, kernel_size=(1, 1), stride=(1, 1))
        )
        (1): ReLU(inplace=True)
        (2): adder2d(
          (pointwise): Conv2d(64, 64, kernel_size=(1, 1), stride=(1, 1))
        )
      )
    )
    (8): ResBlock(
      (body): Sequential(
        (0): adder2d(
          (pointwise): Conv2d(64, 64, kernel_size=(1, 1), stride=(1, 1))
        )
        (1): ReLU(inplace=True)
        (2): adder2d(
          (pointwise): Conv2d(64, 64, kernel_size=(1, 1), stride=(1, 1))
        )
      )
    )
    (9): ResBlock(
      (body): Sequential(
        (0): adder2d(
          (pointwise): Conv2d(64, 64, kernel_size=(1, 1), stride=(1, 1))
        )
        (1): ReLU(inplace=True)
        (2): adder2d(
          (pointwise): Conv2d(64, 64, kernel_size=(1, 1), stride=(1, 1))
        )
      )
    )
    (10): ResBlock(
      (body): Sequential(
        (0): adder2d(
          (pointwise): Conv2d(64, 64, kernel_size=(1, 1), stride=(1, 1))
        )
        (1): ReLU(inplace=True)
        (2): adder2d(
          (pointwise): Conv2d(64, 64, kernel_size=(1, 1), stride=(1, 1))
        )
      )
    )
    (11): ResBlock(
      (body): Sequential(
        (0): adder2d(
          (pointwise): Conv2d(64, 64, kernel_size=(1, 1), stride=(1, 1))
        )
        (1): ReLU(inplace=True)
        (2): adder2d(
          (pointwise): Conv2d(64, 64, kernel_size=(1, 1), stride=(1, 1))
        )
      )
    )
    (12): ResBlock(
      (body): Sequential(
        (0): adder2d(
          (pointwise): Conv2d(64, 64, kernel_size=(1, 1), stride=(1, 1))
        )
        (1): ReLU(inplace=True)
        (2): adder2d(
          (pointwise): Conv2d(64, 64, kernel_size=(1, 1), stride=(1, 1))
        )
      )
    )
    (13): ResBlock(
      (body): Sequential(
        (0): adder2d(
          (pointwise): Conv2d(64, 64, kernel_size=(1, 1), stride=(1, 1))
        )
        (1): ReLU(inplace=True)
        (2): adder2d(
          (pointwise): Conv2d(64, 64, kernel_size=(1, 1), stride=(1, 1))
        )
      )
    )
    (14): ResBlock(
      (body): Sequential(
        (0): adder2d(
          (pointwise): Conv2d(64, 64, kernel_size=(1, 1), stride=(1, 1))
        )
        (1): ReLU(inplace=True)
        (2): adder2d(
          (pointwise): Conv2d(64, 64, kernel_size=(1, 1), stride=(1, 1))
        )
      )
    )
    (15): ResBlock(
      (body): Sequential(
        (0): adder2d(
          (pointwise): Conv2d(64, 64, kernel_size=(1, 1), stride=(1, 1))
        )
        (1): ReLU(inplace=True)
        (2): adder2d(
          (pointwise): Conv2d(64, 64, kernel_size=(1, 1), stride=(1, 1))
        )
      )
    )
    (16): adder2d(
      (pointwise): Conv2d(64, 64, kernel_size=(1, 1), stride=(1, 1))
    )
  )
  (tail): Sequential(
    (0): Upsampler(
      (0): adder2d(
        (pointwise): Conv2d(64, 256, kernel_size=(1, 1), stride=(1, 1))
      )
      (1): PixelShuffle(upscale_factor=2)
    )
    (1): adder2d(
      (pointwise): Conv2d(64, 3, kernel_size=(1, 1), stride=(1, 1))
    )
  )
)
[Epoch 1]	Learning rate: 1.00e-4
EDSR(
  (sub_mean): MeanShift(3, 3, kernel_size=(1, 1), stride=(1, 1))
  (add_mean): MeanShift(3, 3, kernel_size=(1, 1), stride=(1, 1))
  (head): Sequential(
    (0): adder2d(
      (pointwise): Conv2d(3, 64, kernel_size=(1, 1), stride=(1, 1))
    )
  )
  (body): Sequential(
    (0): ResBlock(
      (body): Sequential(
        (0): adder2d(
          (pointwise): Conv2d(64, 64, kernel_size=(1, 1), stride=(1, 1))
        )
        (1): ReLU(inplace=True)
        (2): adder2d(
          (pointwise): Conv2d(64, 64, kernel_size=(1, 1), stride=(1, 1))
        )
      )
    )
    (1): ResBlock(
      (body): Sequential(
        (0): adder2d(
          (pointwise): Conv2d(64, 64, kernel_size=(1, 1), stride=(1, 1))
        )
        (1): ReLU(inplace=True)
        (2): adder2d(
          (pointwise): Conv2d(64, 64, kernel_size=(1, 1), stride=(1, 1))
        )
      )
    )
    (2): ResBlock(
      (body): Sequential(
        (0): adder2d(
          (pointwise): Conv2d(64, 64, kernel_size=(1, 1), stride=(1, 1))
        )
        (1): ReLU(inplace=True)
        (2): adder2d(
          (pointwise): Conv2d(64, 64, kernel_size=(1, 1), stride=(1, 1))
        )
      )
    )
    (3): ResBlock(
      (body): Sequential(
        (0): adder2d(
          (pointwise): Conv2d(64, 64, kernel_size=(1, 1), stride=(1, 1))
        )
        (1): ReLU(inplace=True)
        (2): adder2d(
          (pointwise): Conv2d(64, 64, kernel_size=(1, 1), stride=(1, 1))
        )
      )
    )
    (4): ResBlock(
      (body): Sequential(
        (0): adder2d(
          (pointwise): Conv2d(64, 64, kernel_size=(1, 1), stride=(1, 1))
        )
        (1): ReLU(inplace=True)
        (2): adder2d(
          (pointwise): Conv2d(64, 64, kernel_size=(1, 1), stride=(1, 1))
        )
      )
    )
    (5): ResBlock(
      (body): Sequential(
        (0): adder2d(
          (pointwise): Conv2d(64, 64, kernel_size=(1, 1), stride=(1, 1))
        )
        (1): ReLU(inplace=True)
        (2): adder2d(
          (pointwise): Conv2d(64, 64, kernel_size=(1, 1), stride=(1, 1))
        )
      )
    )
    (6): ResBlock(
      (body): Sequential(
        (0): adder2d(
          (pointwise): Conv2d(64, 64, kernel_size=(1, 1), stride=(1, 1))
        )
        (1): ReLU(inplace=True)
        (2): adder2d(
          (pointwise): Conv2d(64, 64, kernel_size=(1, 1), stride=(1, 1))
        )
      )
    )
    (7): ResBlock(
      (body): Sequential(
        (0): adder2d(
          (pointwise): Conv2d(64, 64, kernel_size=(1, 1), stride=(1, 1))
        )
        (1): ReLU(inplace=True)
        (2): adder2d(
          (pointwise): Conv2d(64, 64, kernel_size=(1, 1), stride=(1, 1))
        )
      )
    )
    (8): ResBlock(
      (body): Sequential(
        (0): adder2d(
          (pointwise): Conv2d(64, 64, kernel_size=(1, 1), stride=(1, 1))
        )
        (1): ReLU(inplace=True)
        (2): adder2d(
          (pointwise): Conv2d(64, 64, kernel_size=(1, 1), stride=(1, 1))
        )
      )
    )
    (9): ResBlock(
      (body): Sequential(
        (0): adder2d(
          (pointwise): Conv2d(64, 64, kernel_size=(1, 1), stride=(1, 1))
        )
        (1): ReLU(inplace=True)
        (2): adder2d(
          (pointwise): Conv2d(64, 64, kernel_size=(1, 1), stride=(1, 1))
        )
      )
    )
    (10): ResBlock(
      (body): Sequential(
        (0): adder2d(
          (pointwise): Conv2d(64, 64, kernel_size=(1, 1), stride=(1, 1))
        )
        (1): ReLU(inplace=True)
        (2): adder2d(
          (pointwise): Conv2d(64, 64, kernel_size=(1, 1), stride=(1, 1))
        )
      )
    )
    (11): ResBlock(
      (body): Sequential(
        (0): adder2d(
          (pointwise): Conv2d(64, 64, kernel_size=(1, 1), stride=(1, 1))
        )
        (1): ReLU(inplace=True)
        (2): adder2d(
          (pointwise): Conv2d(64, 64, kernel_size=(1, 1), stride=(1, 1))
        )
      )
    )
    (12): ResBlock(
      (body): Sequential(
        (0): adder2d(
          (pointwise): Conv2d(64, 64, kernel_size=(1, 1), stride=(1, 1))
        )
        (1): ReLU(inplace=True)
        (2): adder2d(
          (pointwise): Conv2d(64, 64, kernel_size=(1, 1), stride=(1, 1))
        )
      )
    )
    (13): ResBlock(
      (body): Sequential(
        (0): adder2d(
          (pointwise): Conv2d(64, 64, kernel_size=(1, 1), stride=(1, 1))
        )
        (1): ReLU(inplace=True)
        (2): adder2d(
          (pointwise): Conv2d(64, 64, kernel_size=(1, 1), stride=(1, 1))
        )
      )
    )
    (14): ResBlock(
      (body): Sequential(
        (0): adder2d(
          (pointwise): Conv2d(64, 64, kernel_size=(1, 1), stride=(1, 1))
        )
        (1): ReLU(inplace=True)
        (2): adder2d(
          (pointwise): Conv2d(64, 64, kernel_size=(1, 1), stride=(1, 1))
        )
      )
    )
    (15): ResBlock(
      (body): Sequential(
        (0): adder2d(
          (pointwise): Conv2d(64, 64, kernel_size=(1, 1), stride=(1, 1))
        )
        (1): ReLU(inplace=True)
        (2): adder2d(
          (pointwise): Conv2d(64, 64, kernel_size=(1, 1), stride=(1, 1))
        )
      )
    )
    (16): adder2d(
      (pointwise): Conv2d(64, 64, kernel_size=(1, 1), stride=(1, 1))
    )
  )
  (tail): Sequential(
    (0): Upsampler(
      (0): adder2d(
        (pointwise): Conv2d(64, 256, kernel_size=(1, 1), stride=(1, 1))
      )
      (1): PixelShuffle(upscale_factor=2)
    )
    (1): adder2d(
      (pointwise): Conv2d(64, 3, kernel_size=(1, 1), stride=(1, 1))
    )
  )
)
[Epoch 1]	Learning rate: 1.00e-4
EDSR(
  (sub_mean): MeanShift(3, 3, kernel_size=(1, 1), stride=(1, 1))
  (add_mean): MeanShift(3, 3, kernel_size=(1, 1), stride=(1, 1))
  (head): Sequential(
    (0): adder2d(
      (pointwise): Conv2d(3, 64, kernel_size=(1, 1), stride=(1, 1))
    )
  )
  (body): Sequential(
    (0): ResBlock(
      (body): Sequential(
        (0): adder2d(
          (pointwise): Conv2d(64, 64, kernel_size=(1, 1), stride=(1, 1))
        )
        (1): ReLU(inplace=True)
        (2): adder2d(
          (pointwise): Conv2d(64, 64, kernel_size=(1, 1), stride=(1, 1))
        )
      )
    )
    (1): ResBlock(
      (body): Sequential(
        (0): adder2d(
          (pointwise): Conv2d(64, 64, kernel_size=(1, 1), stride=(1, 1))
        )
        (1): ReLU(inplace=True)
        (2): adder2d(
          (pointwise): Conv2d(64, 64, kernel_size=(1, 1), stride=(1, 1))
        )
      )
    )
    (2): ResBlock(
      (body): Sequential(
        (0): adder2d(
          (pointwise): Conv2d(64, 64, kernel_size=(1, 1), stride=(1, 1))
        )
        (1): ReLU(inplace=True)
        (2): adder2d(
          (pointwise): Conv2d(64, 64, kernel_size=(1, 1), stride=(1, 1))
        )
      )
    )
    (3): ResBlock(
      (body): Sequential(
        (0): adder2d(
          (pointwise): Conv2d(64, 64, kernel_size=(1, 1), stride=(1, 1))
        )
        (1): ReLU(inplace=True)
        (2): adder2d(
          (pointwise): Conv2d(64, 64, kernel_size=(1, 1), stride=(1, 1))
        )
      )
    )
    (4): ResBlock(
      (body): Sequential(
        (0): adder2d(
          (pointwise): Conv2d(64, 64, kernel_size=(1, 1), stride=(1, 1))
        )
        (1): ReLU(inplace=True)
        (2): adder2d(
          (pointwise): Conv2d(64, 64, kernel_size=(1, 1), stride=(1, 1))
        )
      )
    )
    (5): ResBlock(
      (body): Sequential(
        (0): adder2d(
          (pointwise): Conv2d(64, 64, kernel_size=(1, 1), stride=(1, 1))
        )
        (1): ReLU(inplace=True)
        (2): adder2d(
          (pointwise): Conv2d(64, 64, kernel_size=(1, 1), stride=(1, 1))
        )
      )
    )
    (6): ResBlock(
      (body): Sequential(
        (0): adder2d(
          (pointwise): Conv2d(64, 64, kernel_size=(1, 1), stride=(1, 1))
        )
        (1): ReLU(inplace=True)
        (2): adder2d(
          (pointwise): Conv2d(64, 64, kernel_size=(1, 1), stride=(1, 1))
        )
      )
    )
    (7): ResBlock(
      (body): Sequential(
        (0): adder2d(
          (pointwise): Conv2d(64, 64, kernel_size=(1, 1), stride=(1, 1))
        )
        (1): ReLU(inplace=True)
        (2): adder2d(
          (pointwise): Conv2d(64, 64, kernel_size=(1, 1), stride=(1, 1))
        )
      )
    )
    (8): ResBlock(
      (body): Sequential(
        (0): adder2d(
          (pointwise): Conv2d(64, 64, kernel_size=(1, 1), stride=(1, 1))
        )
        (1): ReLU(inplace=True)
        (2): adder2d(
          (pointwise): Conv2d(64, 64, kernel_size=(1, 1), stride=(1, 1))
        )
      )
    )
    (9): ResBlock(
      (body): Sequential(
        (0): adder2d(
          (pointwise): Conv2d(64, 64, kernel_size=(1, 1), stride=(1, 1))
        )
        (1): ReLU(inplace=True)
        (2): adder2d(
          (pointwise): Conv2d(64, 64, kernel_size=(1, 1), stride=(1, 1))
        )
      )
    )
    (10): ResBlock(
      (body): Sequential(
        (0): adder2d(
          (pointwise): Conv2d(64, 64, kernel_size=(1, 1), stride=(1, 1))
        )
        (1): ReLU(inplace=True)
        (2): adder2d(
          (pointwise): Conv2d(64, 64, kernel_size=(1, 1), stride=(1, 1))
        )
      )
    )
    (11): ResBlock(
      (body): Sequential(
        (0): adder2d(
          (pointwise): Conv2d(64, 64, kernel_size=(1, 1), stride=(1, 1))
        )
        (1): ReLU(inplace=True)
        (2): adder2d(
          (pointwise): Conv2d(64, 64, kernel_size=(1, 1), stride=(1, 1))
        )
      )
    )
    (12): ResBlock(
      (body): Sequential(
        (0): adder2d(
          (pointwise): Conv2d(64, 64, kernel_size=(1, 1), stride=(1, 1))
        )
        (1): ReLU(inplace=True)
        (2): adder2d(
          (pointwise): Conv2d(64, 64, kernel_size=(1, 1), stride=(1, 1))
        )
      )
    )
    (13): ResBlock(
      (body): Sequential(
        (0): adder2d(
          (pointwise): Conv2d(64, 64, kernel_size=(1, 1), stride=(1, 1))
        )
        (1): ReLU(inplace=True)
        (2): adder2d(
          (pointwise): Conv2d(64, 64, kernel_size=(1, 1), stride=(1, 1))
        )
      )
    )
    (14): ResBlock(
      (body): Sequential(
        (0): adder2d(
          (pointwise): Conv2d(64, 64, kernel_size=(1, 1), stride=(1, 1))
        )
        (1): ReLU(inplace=True)
        (2): adder2d(
          (pointwise): Conv2d(64, 64, kernel_size=(1, 1), stride=(1, 1))
        )
      )
    )
    (15): ResBlock(
      (body): Sequential(
        (0): adder2d(
          (pointwise): Conv2d(64, 64, kernel_size=(1, 1), stride=(1, 1))
        )
        (1): ReLU(inplace=True)
        (2): adder2d(
          (pointwise): Conv2d(64, 64, kernel_size=(1, 1), stride=(1, 1))
        )
      )
    )
    (16): adder2d(
      (pointwise): Conv2d(64, 64, kernel_size=(1, 1), stride=(1, 1))
    )
  )
  (tail): Sequential(
    (0): Upsampler(
      (0): adder2d(
        (pointwise): Conv2d(64, 256, kernel_size=(1, 1), stride=(1, 1))
      )
      (1): PixelShuffle(upscale_factor=2)
    )
    (1): adder2d(
      (pointwise): Conv2d(64, 3, kernel_size=(1, 1), stride=(1, 1))
    )
  )
)
[Epoch 1]	Learning rate: 1.00e-4
EDSR(
  (sub_mean): MeanShift(3, 3, kernel_size=(1, 1), stride=(1, 1))
  (add_mean): MeanShift(3, 3, kernel_size=(1, 1), stride=(1, 1))
  (head): Sequential(
    (0): adder2d()
  )
  (body): Sequential(
    (0): ResBlock(
      (body): Sequential(
        (0): adder2d()
        (1): ReLU(inplace=True)
…
        (0): adder2d()
        (1): ReLU(inplace=True)
        (2): adder2d()
      )
    )
    (15): ResBlock(
      (body): Sequential(
        (0): adder2d()
        (1): ReLU(inplace=True)
        (2): adder2d()
      )
    )
    (16): adder2d()
  )
  (tail): Sequential(
    (0): Upsampler(
      (0): adder2d()
      (1): PixelShuffle(upscale_factor=2)
    )
    (1): adder2d()
  )
)
[Epoch 1]	Learning rate: 1.00e-4
EDSR(
  (sub_mean): MeanShift(3, 3, kernel_size=(1, 1), stride=(1, 1))
  (add_mean): MeanShift(3, 3, kernel_size=(1, 1), stride=(1, 1))
  (head): Sequential(
    (0): Conv2d(3, 64, kernel_size=(3, 3), stride=(1, 1), padding=(1, 1))
  )
  (body): Sequential(
    (0): ResBlock(
      (body): Sequential(
        (0): Conv2d(64, 64, kernel_size=(3, 3), stride=(1, 1), padding=(1, 1))
        (1): ReLU(inplace=True)
        (2): Conv2d(64, 64, kernel_size=(3, 3), stride=(1, 1), padding=(1, 1))
      )
    )
    (1): ResBlock(
      (body): Sequential(
        (0): Conv2d(64, 64, kernel_size=(3, 3), stride=(1, 1), padding=(1, 1))
        (1): ReLU(inplace=True)
        (2): Conv2d(64, 64, kernel_size=(3, 3), stride=(1, 1), padding=(1, 1))
      )
    )
    (2): ResBlock(
      (body): Sequential(
        (0): Conv2d(64, 64, kernel_size=(3, 3), stride=(1, 1), padding=(1, 1))
        (1): ReLU(inplace=True)
        (2): Conv2d(64, 64, kernel_size=(3, 3), stride=(1, 1), padding=(1, 1))
      )
    )
    (3): ResBlock(
      (body): Sequential(
        (0): Conv2d(64, 64, kernel_size=(3, 3), stride=(1, 1), padding=(1, 1))
        (1): ReLU(inplace=True)
        (2): Conv2d(64, 64, kernel_size=(3, 3), stride=(1, 1), padding=(1, 1))
      )
    )
    (4): ResBlock(
      (body): Sequential(
        (0): Conv2d(64, 64, kernel_size=(3, 3), stride=(1, 1), padding=(1, 1))
        (1): ReLU(inplace=True)
        (2): Conv2d(64, 64, kernel_size=(3, 3), stride=(1, 1), padding=(1, 1))
      )
    )
    (5): ResBlock(
      (body): Sequential(
        (0): Conv2d(64, 64, kernel_size=(3, 3), stride=(1, 1), padding=(1, 1))
        (1): ReLU(inplace=True)
        (2): Conv2d(64, 64, kernel_size=(3, 3), stride=(1, 1), padding=(1, 1))
      )
    )
    (6): ResBlock(
      (body): Sequential(
        (0): Conv2d(64, 64, kernel_size=(3, 3), stride=(1, 1), padding=(1, 1))
        (1): ReLU(inplace=True)
        (2): Conv2d(64, 64, kernel_size=(3, 3), stride=(1, 1), padding=(1, 1))
      )
    )
    (7): ResBlock(
      (body): Sequential(
        (0): Conv2d(64, 64, kernel_size=(3, 3), stride=(1, 1), padding=(1, 1))
        (1): ReLU(inplace=True)
        (2): Conv2d(64, 64, kernel_size=(3, 3), stride=(1, 1), padding=(1, 1))
      )
    )
    (8): ResBlock(
      (body): Sequential(
        (0): Conv2d(64, 64, kernel_size=(3, 3), stride=(1, 1), padding=(1, 1))
        (1): ReLU(inplace=True)
        (2): Conv2d(64, 64, kernel_size=(3, 3), stride=(1, 1), padding=(1, 1))
      )
    )
    (9): ResBlock(
      (body): Sequential(
        (0): Conv2d(64, 64, kernel_size=(3, 3), stride=(1, 1), padding=(1, 1))
        (1): ReLU(inplace=True)
        (2): Conv2d(64, 64, kernel_size=(3, 3), stride=(1, 1), padding=(1, 1))
      )
    )
    (10): ResBlock(
      (body): Sequential(
        (0): Conv2d(64, 64, kernel_size=(3, 3), stride=(1, 1), padding=(1, 1))
        (1): ReLU(inplace=True)
        (2): Conv2d(64, 64, kernel_size=(3, 3), stride=(1, 1), padding=(1, 1))
      )
    )
    (11): ResBlock(
      (body): Sequential(
        (0): Conv2d(64, 64, kernel_size=(3, 3), stride=(1, 1), padding=(1, 1))
        (1): ReLU(inplace=True)
        (2): Conv2d(64, 64, kernel_size=(3, 3), stride=(1, 1), padding=(1, 1))
      )
    )
    (12): ResBlock(
      (body): Sequential(
        (0): Conv2d(64, 64, kernel_size=(3, 3), stride=(1, 1), padding=(1, 1))
        (1): ReLU(inplace=True)
        (2): Conv2d(64, 64, kernel_size=(3, 3), stride=(1, 1), padding=(1, 1))
      )
    )
    (13): ResBlock(
      (body): Sequential(
        (0): Conv2d(64, 64, kernel_size=(3, 3), stride=(1, 1), padding=(1, 1))
        (1): ReLU(inplace=True)
        (2): Conv2d(64, 64, kernel_size=(3, 3), stride=(1, 1), padding=(1, 1))
      )
    )
    (14): ResBlock(
      (body): Sequential(
        (0): Conv2d(64, 64, kernel_size=(3, 3), stride=(1, 1), padding=(1, 1))
        (1): ReLU(inplace=True)
        (2): Conv2d(64, 64, kernel_size=(3, 3), stride=(1, 1), padding=(1, 1))
      )
    )
    (15): ResBlock(
      (body): Sequential(
        (0): Conv2d(64, 64, kernel_size=(3, 3), stride=(1, 1), padding=(1, 1))
        (1): ReLU(inplace=True)
        (2): Conv2d(64, 64, kernel_size=(3, 3), stride=(1, 1), padding=(1, 1))
      )
    )
    (16): Conv2d(64, 64, kernel_size=(3, 3), stride=(1, 1), padding=(1, 1))
  )
  (tail): Sequential(
    (0): Upsampler(
      (0): Conv2d(64, 256, kernel_size=(3, 3), stride=(1, 1), padding=(1, 1))
      (1): PixelShuffle(upscale_factor=2)
    )
    (1): Conv2d(64, 3, kernel_size=(3, 3), stride=(1, 1), padding=(1, 1))
  )
)
[Epoch 1]	Learning rate: 1.00e-4
[1600/16000]	[L1: 57.4042]	19.7+165.1s
[3200/16000]	[L1: 45.9379]	4.6+164.2s
EDSR(
  (sub_mean): MeanShift(3, 3, kernel_size=(1, 1), stride=(1, 1))
  (add_mean): MeanShift(3, 3, kernel_size=(1, 1), stride=(1, 1))
  (head): Sequential(
    (0): adder2d()
  )
  (body): Sequential(
    (0): ResBlock(
…
        (0): adder2d()
        (1): ReLU(inplace=True)
        (2): adder2d()
      )
    )
    (15): ResBlock(
      (body): Sequential(
        (0): adder2d()
        (1): ReLU(inplace=True)
        (2): adder2d()
      )
    )
    (16): adder2d()
  )
  (tail): Sequential(
    (0): Upsampler(
      (0): adder2d()
      (1): PixelShuffle(upscale_factor=2)
    )
    (1): adder2d()
  )
)
[Epoch 1]	Learning rate: 1.00e-4
EDSR(
  (sub_mean): MeanShift(3, 3, kernel_size=(1, 1), stride=(1, 1))
  (add_mean): MeanShift(3, 3, kernel_size=(1, 1), stride=(1, 1))
  (head): Sequential(
    (0): Conv2d(3, 64, kernel_size=(3, 3), stride=(1, 1), padding=(1, 1))
  )
  (body): Sequential(
    (0): ResBlock(
      (body): Sequential(
        (0): Conv2d(64, 64, kernel_size=(3, 3), stride=(1, 1), padding=(1, 1))
        (1): ReLU(inplace=True)
        (2): Conv2d(64, 64, kernel_size=(3, 3), stride=(1, 1), padding=(1, 1))
      )
    )
    (1): ResBlock(
      (body): Sequential(
        (0): Conv2d(64, 64, kernel_size=(3, 3), stride=(1, 1), padding=(1, 1))
        (1): ReLU(inplace=True)
        (2): Conv2d(64, 64, kernel_size=(3, 3), stride=(1, 1), padding=(1, 1))
      )
    )
    (2): ResBlock(
      (body): Sequential(
        (0): Conv2d(64, 64, kernel_size=(3, 3), stride=(1, 1), padding=(1, 1))
        (1): ReLU(inplace=True)
        (2): Conv2d(64, 64, kernel_size=(3, 3), stride=(1, 1), padding=(1, 1))
      )
    )
    (3): ResBlock(
      (body): Sequential(
        (0): Conv2d(64, 64, kernel_size=(3, 3), stride=(1, 1), padding=(1, 1))
        (1): ReLU(inplace=True)
        (2): Conv2d(64, 64, kernel_size=(3, 3), stride=(1, 1), padding=(1, 1))
      )
    )
    (4): ResBlock(
      (body): Sequential(
        (0): Conv2d(64, 64, kernel_size=(3, 3), stride=(1, 1), padding=(1, 1))
        (1): ReLU(inplace=True)
        (2): Conv2d(64, 64, kernel_size=(3, 3), stride=(1, 1), padding=(1, 1))
      )
    )
    (5): ResBlock(
      (body): Sequential(
        (0): Conv2d(64, 64, kernel_size=(3, 3), stride=(1, 1), padding=(1, 1))
        (1): ReLU(inplace=True)
        (2): Conv2d(64, 64, kernel_size=(3, 3), stride=(1, 1), padding=(1, 1))
      )
    )
    (6): ResBlock(
      (body): Sequential(
        (0): Conv2d(64, 64, kernel_size=(3, 3), stride=(1, 1), padding=(1, 1))
        (1): ReLU(inplace=True)
        (2): Conv2d(64, 64, kernel_size=(3, 3), stride=(1, 1), padding=(1, 1))
      )
    )
    (7): ResBlock(
      (body): Sequential(
        (0): Conv2d(64, 64, kernel_size=(3, 3), stride=(1, 1), padding=(1, 1))
        (1): ReLU(inplace=True)
        (2): Conv2d(64, 64, kernel_size=(3, 3), stride=(1, 1), padding=(1, 1))
      )
    )
    (8): ResBlock(
      (body): Sequential(
        (0): Conv2d(64, 64, kernel_size=(3, 3), stride=(1, 1), padding=(1, 1))
        (1): ReLU(inplace=True)
        (2): Conv2d(64, 64, kernel_size=(3, 3), stride=(1, 1), padding=(1, 1))
      )
    )
    (9): ResBlock(
      (body): Sequential(
        (0): Conv2d(64, 64, kernel_size=(3, 3), stride=(1, 1), padding=(1, 1))
        (1): ReLU(inplace=True)
        (2): Conv2d(64, 64, kernel_size=(3, 3), stride=(1, 1), padding=(1, 1))
      )
    )
    (10): ResBlock(
      (body): Sequential(
        (0): Conv2d(64, 64, kernel_size=(3, 3), stride=(1, 1), padding=(1, 1))
        (1): ReLU(inplace=True)
        (2): Conv2d(64, 64, kernel_size=(3, 3), stride=(1, 1), padding=(1, 1))
      )
    )
    (11): ResBlock(
      (body): Sequential(
        (0): Conv2d(64, 64, kernel_size=(3, 3), stride=(1, 1), padding=(1, 1))
        (1): ReLU(inplace=True)
        (2): Conv2d(64, 64, kernel_size=(3, 3), stride=(1, 1), padding=(1, 1))
      )
    )
    (12): ResBlock(
      (body): Sequential(
        (0): Conv2d(64, 64, kernel_size=(3, 3), stride=(1, 1), padding=(1, 1))
        (1): ReLU(inplace=True)
        (2): Conv2d(64, 64, kernel_size=(3, 3), stride=(1, 1), padding=(1, 1))
      )
    )
    (13): ResBlock(
      (body): Sequential(
        (0): Conv2d(64, 64, kernel_size=(3, 3), stride=(1, 1), padding=(1, 1))
        (1): ReLU(inplace=True)
        (2): Conv2d(64, 64, kernel_size=(3, 3), stride=(1, 1), padding=(1, 1))
      )
    )
    (14): ResBlock(
      (body): Sequential(
        (0): Conv2d(64, 64, kernel_size=(3, 3), stride=(1, 1), padding=(1, 1))
        (1): ReLU(inplace=True)
        (2): Conv2d(64, 64, kernel_size=(3, 3), stride=(1, 1), padding=(1, 1))
      )
    )
    (15): ResBlock(
      (body): Sequential(
        (0): Conv2d(64, 64, kernel_size=(3, 3), stride=(1, 1), padding=(1, 1))
        (1): ReLU(inplace=True)
        (2): Conv2d(64, 64, kernel_size=(3, 3), stride=(1, 1), padding=(1, 1))
      )
    )
    (16): Conv2d(64, 64, kernel_size=(3, 3), stride=(1, 1), padding=(1, 1))
  )
  (tail): Sequential(
    (0): Upsampler(
      (0): Conv2d(64, 256, kernel_size=(3, 3), stride=(1, 1), padding=(1, 1))
      (1): PixelShuffle(upscale_factor=2)
    )
    (1): Conv2d(64, 3, kernel_size=(3, 3), stride=(1, 1), padding=(1, 1))
  )
)
[Epoch 1]	Learning rate: 1.00e-4
EDSR(
  (sub_mean): MeanShift(3, 3, kernel_size=(1, 1), stride=(1, 1))
  (add_mean): MeanShift(3, 3, kernel_size=(1, 1), stride=(1, 1))
  (head): Sequential(
    (0): Conv2d(3, 64, kernel_size=(3, 3), stride=(1, 1), padding=(1, 1))
  )
  (body): Sequential(
    (0): ResBlock(
      (body): Sequential(
        (0): Conv2d(64, 64, kernel_size=(3, 3), stride=(1, 1), padding=(1, 1))
        (1): ReLU(inplace=True)
        (2): Conv2d(64, 64, kernel_size=(3, 3), stride=(1, 1), padding=(1, 1))
      )
    )
    (1): ResBlock(
      (body): Sequential(
        (0): Conv2d(64, 64, kernel_size=(3, 3), stride=(1, 1), padding=(1, 1))
        (1): ReLU(inplace=True)
        (2): Conv2d(64, 64, kernel_size=(3, 3), stride=(1, 1), padding=(1, 1))
      )
    )
    (2): ResBlock(
      (body): Sequential(
        (0): Conv2d(64, 64, kernel_size=(3, 3), stride=(1, 1), padding=(1, 1))
        (1): ReLU(inplace=True)
        (2): Conv2d(64, 64, kernel_size=(3, 3), stride=(1, 1), padding=(1, 1))
      )
    )
    (3): ResBlock(
      (body): Sequential(
        (0): Conv2d(64, 64, kernel_size=(3, 3), stride=(1, 1), padding=(1, 1))
        (1): ReLU(inplace=True)
        (2): Conv2d(64, 64, kernel_size=(3, 3), stride=(1, 1), padding=(1, 1))
      )
    )
    (4): ResBlock(
      (body): Sequential(
        (0): Conv2d(64, 64, kernel_size=(3, 3), stride=(1, 1), padding=(1, 1))
        (1): ReLU(inplace=True)
        (2): Conv2d(64, 64, kernel_size=(3, 3), stride=(1, 1), padding=(1, 1))
      )
    )
    (5): ResBlock(
      (body): Sequential(
        (0): Conv2d(64, 64, kernel_size=(3, 3), stride=(1, 1), padding=(1, 1))
        (1): ReLU(inplace=True)
        (2): Conv2d(64, 64, kernel_size=(3, 3), stride=(1, 1), padding=(1, 1))
      )
    )
    (6): ResBlock(
      (body): Sequential(
        (0): Conv2d(64, 64, kernel_size=(3, 3), stride=(1, 1), padding=(1, 1))
        (1): ReLU(inplace=True)
        (2): Conv2d(64, 64, kernel_size=(3, 3), stride=(1, 1), padding=(1, 1))
      )
    )
    (7): ResBlock(
      (body): Sequential(
        (0): Conv2d(64, 64, kernel_size=(3, 3), stride=(1, 1), padding=(1, 1))
        (1): ReLU(inplace=True)
        (2): Conv2d(64, 64, kernel_size=(3, 3), stride=(1, 1), padding=(1, 1))
      )
    )
    (8): ResBlock(
      (body): Sequential(
        (0): Conv2d(64, 64, kernel_size=(3, 3), stride=(1, 1), padding=(1, 1))
        (1): ReLU(inplace=True)
        (2): Conv2d(64, 64, kernel_size=(3, 3), stride=(1, 1), padding=(1, 1))
      )
    )
    (9): ResBlock(
      (body): Sequential(
        (0): Conv2d(64, 64, kernel_size=(3, 3), stride=(1, 1), padding=(1, 1))
        (1): ReLU(inplace=True)
        (2): Conv2d(64, 64, kernel_size=(3, 3), stride=(1, 1), padding=(1, 1))
      )
    )
    (10): ResBlock(
      (body): Sequential(
        (0): Conv2d(64, 64, kernel_size=(3, 3), stride=(1, 1), padding=(1, 1))
        (1): ReLU(inplace=True)
        (2): Conv2d(64, 64, kernel_size=(3, 3), stride=(1, 1), padding=(1, 1))
      )
    )
    (11): ResBlock(
      (body): Sequential(
        (0): Conv2d(64, 64, kernel_size=(3, 3), stride=(1, 1), padding=(1, 1))
        (1): ReLU(inplace=True)
        (2): Conv2d(64, 64, kernel_size=(3, 3), stride=(1, 1), padding=(1, 1))
      )
    )
    (12): ResBlock(
      (body): Sequential(
        (0): Conv2d(64, 64, kernel_size=(3, 3), stride=(1, 1), padding=(1, 1))
        (1): ReLU(inplace=True)
        (2): Conv2d(64, 64, kernel_size=(3, 3), stride=(1, 1), padding=(1, 1))
      )
    )
    (13): ResBlock(
      (body): Sequential(
        (0): Conv2d(64, 64, kernel_size=(3, 3), stride=(1, 1), padding=(1, 1))
        (1): ReLU(inplace=True)
        (2): Conv2d(64, 64, kernel_size=(3, 3), stride=(1, 1), padding=(1, 1))
      )
    )
    (14): ResBlock(
      (body): Sequential(
        (0): Conv2d(64, 64, kernel_size=(3, 3), stride=(1, 1), padding=(1, 1))
        (1): ReLU(inplace=True)
        (2): Conv2d(64, 64, kernel_size=(3, 3), stride=(1, 1), padding=(1, 1))
      )
    )
    (15): ResBlock(
      (body): Sequential(
        (0): Conv2d(64, 64, kernel_size=(3, 3), stride=(1, 1), padding=(1, 1))
        (1): ReLU(inplace=True)
        (2): Conv2d(64, 64, kernel_size=(3, 3), stride=(1, 1), padding=(1, 1))
      )
    )
    (16): Conv2d(64, 64, kernel_size=(3, 3), stride=(1, 1), padding=(1, 1))
  )
  (tail): Sequential(
    (0): Upsampler(
      (0): Conv2d(64, 256, kernel_size=(3, 3), stride=(1, 1), padding=(1, 1))
      (1): PixelShuffle(upscale_factor=2)
    )
    (1): Conv2d(64, 3, kernel_size=(3, 3), stride=(1, 1), padding=(1, 1))
  )
)
[Epoch 1]	Learning rate: 1.00e-4
EDSR(
  (sub_mean): MeanShift(3, 3, kernel_size=(1, 1), stride=(1, 1))
  (add_mean): MeanShift(3, 3, kernel_size=(1, 1), stride=(1, 1))
  (head): Sequential(
    (0): Conv2d(3, 64, kernel_size=(3, 3), stride=(1, 1), padding=(1, 1))
  )
  (body): Sequential(
    (0): ResBlock(
      (body): Sequential(
        (0): Conv2d(64, 64, kernel_size=(3, 3), stride=(1, 1), padding=(1, 1))
        (1): ReLU(inplace=True)
        (2): Conv2d(64, 64, kernel_size=(3, 3), stride=(1, 1), padding=(1, 1))
      )
    )
    (1): ResBlock(
      (body): Sequential(
        (0): Conv2d(64, 64, kernel_size=(3, 3), stride=(1, 1), padding=(1, 1))
        (1): ReLU(inplace=True)
        (2): Conv2d(64, 64, kernel_size=(3, 3), stride=(1, 1), padding=(1, 1))
      )
    )
    (2): ResBlock(
      (body): Sequential(
        (0): Conv2d(64, 64, kernel_size=(3, 3), stride=(1, 1), padding=(1, 1))
        (1): ReLU(inplace=True)
        (2): Conv2d(64, 64, kernel_size=(3, 3), stride=(1, 1), padding=(1, 1))
      )
    )
    (3): ResBlock(
      (body): Sequential(
        (0): Conv2d(64, 64, kernel_size=(3, 3), stride=(1, 1), padding=(1, 1))
        (1): ReLU(inplace=True)
        (2): Conv2d(64, 64, kernel_size=(3, 3), stride=(1, 1), padding=(1, 1))
      )
    )
    (4): ResBlock(
      (body): Sequential(
        (0): Conv2d(64, 64, kernel_size=(3, 3), stride=(1, 1), padding=(1, 1))
        (1): ReLU(inplace=True)
        (2): Conv2d(64, 64, kernel_size=(3, 3), stride=(1, 1), padding=(1, 1))
      )
    )
    (5): ResBlock(
      (body): Sequential(
        (0): Conv2d(64, 64, kernel_size=(3, 3), stride=(1, 1), padding=(1, 1))
        (1): ReLU(inplace=True)
        (2): Conv2d(64, 64, kernel_size=(3, 3), stride=(1, 1), padding=(1, 1))
      )
    )
    (6): ResBlock(
      (body): Sequential(
        (0): Conv2d(64, 64, kernel_size=(3, 3), stride=(1, 1), padding=(1, 1))
        (1): ReLU(inplace=True)
        (2): Conv2d(64, 64, kernel_size=(3, 3), stride=(1, 1), padding=(1, 1))
      )
    )
    (7): ResBlock(
      (body): Sequential(
        (0): Conv2d(64, 64, kernel_size=(3, 3), stride=(1, 1), padding=(1, 1))
        (1): ReLU(inplace=True)
        (2): Conv2d(64, 64, kernel_size=(3, 3), stride=(1, 1), padding=(1, 1))
      )
    )
    (8): ResBlock(
      (body): Sequential(
        (0): Conv2d(64, 64, kernel_size=(3, 3), stride=(1, 1), padding=(1, 1))
        (1): ReLU(inplace=True)
        (2): Conv2d(64, 64, kernel_size=(3, 3), stride=(1, 1), padding=(1, 1))
      )
    )
    (9): ResBlock(
      (body): Sequential(
        (0): Conv2d(64, 64, kernel_size=(3, 3), stride=(1, 1), padding=(1, 1))
        (1): ReLU(inplace=True)
        (2): Conv2d(64, 64, kernel_size=(3, 3), stride=(1, 1), padding=(1, 1))
      )
    )
    (10): ResBlock(
      (body): Sequential(
        (0): Conv2d(64, 64, kernel_size=(3, 3), stride=(1, 1), padding=(1, 1))
        (1): ReLU(inplace=True)
        (2): Conv2d(64, 64, kernel_size=(3, 3), stride=(1, 1), padding=(1, 1))
      )
    )
    (11): ResBlock(
      (body): Sequential(
        (0): Conv2d(64, 64, kernel_size=(3, 3), stride=(1, 1), padding=(1, 1))
        (1): ReLU(inplace=True)
        (2): Conv2d(64, 64, kernel_size=(3, 3), stride=(1, 1), padding=(1, 1))
      )
    )
    (12): ResBlock(
      (body): Sequential(
        (0): Conv2d(64, 64, kernel_size=(3, 3), stride=(1, 1), padding=(1, 1))
        (1): ReLU(inplace=True)
        (2): Conv2d(64, 64, kernel_size=(3, 3), stride=(1, 1), padding=(1, 1))
      )
    )
    (13): ResBlock(
      (body): Sequential(
        (0): Conv2d(64, 64, kernel_size=(3, 3), stride=(1, 1), padding=(1, 1))
        (1): ReLU(inplace=True)
        (2): Conv2d(64, 64, kernel_size=(3, 3), stride=(1, 1), padding=(1, 1))
      )
    )
    (14): ResBlock(
      (body): Sequential(
        (0): Conv2d(64, 64, kernel_size=(3, 3), stride=(1, 1), padding=(1, 1))
        (1): ReLU(inplace=True)
        (2): Conv2d(64, 64, kernel_size=(3, 3), stride=(1, 1), padding=(1, 1))
      )
    )
    (15): ResBlock(
      (body): Sequential(
        (0): Conv2d(64, 64, kernel_size=(3, 3), stride=(1, 1), padding=(1, 1))
        (1): ReLU(inplace=True)
        (2): Conv2d(64, 64, kernel_size=(3, 3), stride=(1, 1), padding=(1, 1))
      )
    )
    (16): Conv2d(64, 64, kernel_size=(3, 3), stride=(1, 1), padding=(1, 1))
  )
  (tail): Sequential(
    (0): Upsampler(
      (0): Conv2d(64, 256, kernel_size=(3, 3), stride=(1, 1), padding=(1, 1))
      (1): PixelShuffle(upscale_factor=2)
    )
    (1): Conv2d(64, 3, kernel_size=(3, 3), stride=(1, 1), padding=(1, 1))
  )
)
[Epoch 1]	Learning rate: 1.00e-4
EDSR(
  (sub_mean): MeanShift(3, 3, kernel_size=(1, 1), stride=(1, 1))
  (add_mean): MeanShift(3, 3, kernel_size=(1, 1), stride=(1, 1))
  (head): Sequential(
    (0): adder2d()
  )
  (body): Sequential(
    (0): ResBlock(
      (body): Sequential(
        (0): adder2d()
        (1): ReLU(inplace=True)
…
    (15): ResBlock(
      (body): Sequential(
        (0): adder2d()
        (1): ReLU(inplace=True)
        (2): adder2d()
      )
    )
    (16): adder2d()
  )
  (tail): Sequential(
    (0): Upsampler(
      (0): adder2d()
      (1): PixelShuffle(upscale_factor=2)
    )
    (1): adder2d()
  )
)
[Epoch 1]	Learning rate: 1.00e-4
[1600/16000]	[L1: 483399200.0000]	24.4+161.7s
[3200/16000]	[L1: 480383552.0000]	8.3+149.3s
EDSR(
  (sub_mean): MeanShift(3, 3, kernel_size=(1, 1), stride=(1, 1))
  (add_mean): MeanShift(3, 3, kernel_size=(1, 1), stride=(1, 1))
  (head): Sequential(
    (0): Conv2d(3, 64, kernel_size=(3, 3), stride=(1, 1), padding=(1, 1))
  )
  (body): Sequential(
    (0): ResBlock(
      (body): Sequential(
        (0): Conv2d(64, 64, kernel_size=(3, 3), stride=(1, 1), padding=(1, 1))
        (1): ReLU(inplace=True)
        (2): Conv2d(64, 64, kernel_size=(3, 3), stride=(1, 1), padding=(1, 1))
      )
    )
    (1): ResBlock(
      (body): Sequential(
        (0): Conv2d(64, 64, kernel_size=(3, 3), stride=(1, 1), padding=(1, 1))
        (1): ReLU(inplace=True)
        (2): Conv2d(64, 64, kernel_size=(3, 3), stride=(1, 1), padding=(1, 1))
      )
    )
    (2): ResBlock(
      (body): Sequential(
        (0): Conv2d(64, 64, kernel_size=(3, 3), stride=(1, 1), padding=(1, 1))
        (1): ReLU(inplace=True)
        (2): Conv2d(64, 64, kernel_size=(3, 3), stride=(1, 1), padding=(1, 1))
      )
    )
    (3): ResBlock(
      (body): Sequential(
        (0): Conv2d(64, 64, kernel_size=(3, 3), stride=(1, 1), padding=(1, 1))
        (1): ReLU(inplace=True)
        (2): Conv2d(64, 64, kernel_size=(3, 3), stride=(1, 1), padding=(1, 1))
      )
    )
    (4): ResBlock(
      (body): Sequential(
        (0): Conv2d(64, 64, kernel_size=(3, 3), stride=(1, 1), padding=(1, 1))
        (1): ReLU(inplace=True)
        (2): Conv2d(64, 64, kernel_size=(3, 3), stride=(1, 1), padding=(1, 1))
      )
    )
    (5): ResBlock(
      (body): Sequential(
        (0): Conv2d(64, 64, kernel_size=(3, 3), stride=(1, 1), padding=(1, 1))
        (1): ReLU(inplace=True)
        (2): Conv2d(64, 64, kernel_size=(3, 3), stride=(1, 1), padding=(1, 1))
      )
    )
    (6): ResBlock(
      (body): Sequential(
        (0): Conv2d(64, 64, kernel_size=(3, 3), stride=(1, 1), padding=(1, 1))
        (1): ReLU(inplace=True)
        (2): Conv2d(64, 64, kernel_size=(3, 3), stride=(1, 1), padding=(1, 1))
      )
    )
    (7): ResBlock(
      (body): Sequential(
        (0): Conv2d(64, 64, kernel_size=(3, 3), stride=(1, 1), padding=(1, 1))
        (1): ReLU(inplace=True)
        (2): Conv2d(64, 64, kernel_size=(3, 3), stride=(1, 1), padding=(1, 1))
      )
    )
    (8): ResBlock(
      (body): Sequential(
        (0): Conv2d(64, 64, kernel_size=(3, 3), stride=(1, 1), padding=(1, 1))
        (1): ReLU(inplace=True)
        (2): Conv2d(64, 64, kernel_size=(3, 3), stride=(1, 1), padding=(1, 1))
      )
    )
    (9): ResBlock(
      (body): Sequential(
        (0): Conv2d(64, 64, kernel_size=(3, 3), stride=(1, 1), padding=(1, 1))
        (1): ReLU(inplace=True)
        (2): Conv2d(64, 64, kernel_size=(3, 3), stride=(1, 1), padding=(1, 1))
      )
    )
    (10): ResBlock(
      (body): Sequential(
        (0): Conv2d(64, 64, kernel_size=(3, 3), stride=(1, 1), padding=(1, 1))
        (1): ReLU(inplace=True)
        (2): Conv2d(64, 64, kernel_size=(3, 3), stride=(1, 1), padding=(1, 1))
      )
    )
    (11): ResBlock(
      (body): Sequential(
        (0): Conv2d(64, 64, kernel_size=(3, 3), stride=(1, 1), padding=(1, 1))
        (1): ReLU(inplace=True)
        (2): Conv2d(64, 64, kernel_size=(3, 3), stride=(1, 1), padding=(1, 1))
      )
    )
    (12): ResBlock(
      (body): Sequential(
        (0): Conv2d(64, 64, kernel_size=(3, 3), stride=(1, 1), padding=(1, 1))
        (1): ReLU(inplace=True)
        (2): Conv2d(64, 64, kernel_size=(3, 3), stride=(1, 1), padding=(1, 1))
      )
    )
    (13): ResBlock(
      (body): Sequential(
        (0): Conv2d(64, 64, kernel_size=(3, 3), stride=(1, 1), padding=(1, 1))
        (1): ReLU(inplace=True)
        (2): Conv2d(64, 64, kernel_size=(3, 3), stride=(1, 1), padding=(1, 1))
      )
    )
    (14): ResBlock(
      (body): Sequential(
        (0): Conv2d(64, 64, kernel_size=(3, 3), stride=(1, 1), padding=(1, 1))
        (1): ReLU(inplace=True)
        (2): Conv2d(64, 64, kernel_size=(3, 3), stride=(1, 1), padding=(1, 1))
      )
    )
    (15): ResBlock(
      (body): Sequential(
        (0): Conv2d(64, 64, kernel_size=(3, 3), stride=(1, 1), padding=(1, 1))
        (1): ReLU(inplace=True)
        (2): Conv2d(64, 64, kernel_size=(3, 3), stride=(1, 1), padding=(1, 1))
      )
    )
    (16): Conv2d(64, 64, kernel_size=(3, 3), stride=(1, 1), padding=(1, 1))
  )
  (tail): Sequential(
    (0): Upsampler(
      (0): Conv2d(64, 256, kernel_size=(3, 3), stride=(1, 1), padding=(1, 1))
      (1): PixelShuffle(upscale_factor=2)
    )
    (1): Conv2d(64, 3, kernel_size=(3, 3), stride=(1, 1), padding=(1, 1))
  )
)
[Epoch 1]	Learning rate: 1.00e-4
EDSR(
  (sub_mean): MeanShift(3, 3, kernel_size=(1, 1), stride=(1, 1))
  (add_mean): MeanShift(3, 3, kernel_size=(1, 1), stride=(1, 1))
  (head): Sequential(
    (0): Conv2d(3, 64, kernel_size=(3, 3), stride=(1, 1), padding=(1, 1))
  )
  (body): Sequential(
    (0): ResBlock(
      (body): Sequential(
        (0): adder2d()
        (1): ReLU(inplace=True)
        (2): adder2d()
      )
    )
    (1): ResBlock(
      (body): Sequential(
        (0): adder2d()
        (1): ReLU(inplace=True)
        (2): adder2d()
      )
    )
    (2): ResBlock(
      (body): Sequential(
…
[Epoch 1]	Learning rate: 1.00e-4
[200/1600]	[L1: 3664327213056.0000]	31.5+86.5s
[400/1600]	[L1: 3660728762368.0000]	29.4+77.3s
[600/1600]	[L1: 3659220647936.0000]	29.5+77.5s
[800/1600]	[L1: 3660210503680.0000]	29.4+77.4s
[1000/1600]	[L1: 3659638767616.0000]	29.5+77.3s
[1200/1600]	[L1: 3659150131200.0000]	29.5+77.4s
[1400/1600]	[L1: 3659087478784.0000]	29.7+78.1s
[1600/1600]	[L1: 3658788110336.0000]	30.2+79.0s

Evaluation:
EDSR(
  (sub_mean): MeanShift(3, 3, kernel_size=(1, 1), stride=(1, 1))
  (add_mean): MeanShift(3, 3, kernel_size=(1, 1), stride=(1, 1))
  (head): Sequential(
    (0): Conv2d(3, 64, kernel_size=(3, 3), stride=(1, 1), padding=(1, 1))
  )
  (body): Sequential(
    (0): ResBlock(
      (body): Sequential(
        (0): Conv2d(64, 64, kernel_size=(3, 3), stride=(1, 1), padding=(1, 1))
        (1): ReLU(inplace=True)
        (2): Conv2d(64, 64, kernel_size=(3, 3), stride=(1, 1), padding=(1, 1))
      )
    )
    (1): ResBlock(
      (body): Sequential(
        (0): Conv2d(64, 64, kernel_size=(3, 3), stride=(1, 1), padding=(1, 1))
        (1): ReLU(inplace=True)
        (2): Conv2d(64, 64, kernel_size=(3, 3), stride=(1, 1), padding=(1, 1))
      )
    )
    (2): ResBlock(
      (body): Sequential(
        (0): Conv2d(64, 64, kernel_size=(3, 3), stride=(1, 1), padding=(1, 1))
        (1): ReLU(inplace=True)
        (2): Conv2d(64, 64, kernel_size=(3, 3), stride=(1, 1), padding=(1, 1))
      )
    )
    (3): ResBlock(
      (body): Sequential(
        (0): Conv2d(64, 64, kernel_size=(3, 3), stride=(1, 1), padding=(1, 1))
        (1): ReLU(inplace=True)
        (2): Conv2d(64, 64, kernel_size=(3, 3), stride=(1, 1), padding=(1, 1))
      )
    )
    (4): ResBlock(
      (body): Sequential(
        (0): Conv2d(64, 64, kernel_size=(3, 3), stride=(1, 1), padding=(1, 1))
        (1): ReLU(inplace=True)
        (2): Conv2d(64, 64, kernel_size=(3, 3), stride=(1, 1), padding=(1, 1))
      )
    )
    (5): ResBlock(
      (body): Sequential(
        (0): Conv2d(64, 64, kernel_size=(3, 3), stride=(1, 1), padding=(1, 1))
        (1): ReLU(inplace=True)
        (2): Conv2d(64, 64, kernel_size=(3, 3), stride=(1, 1), padding=(1, 1))
      )
    )
    (6): ResBlock(
      (body): Sequential(
        (0): Conv2d(64, 64, kernel_size=(3, 3), stride=(1, 1), padding=(1, 1))
        (1): ReLU(inplace=True)
        (2): Conv2d(64, 64, kernel_size=(3, 3), stride=(1, 1), padding=(1, 1))
      )
    )
    (7): ResBlock(
      (body): Sequential(
        (0): Conv2d(64, 64, kernel_size=(3, 3), stride=(1, 1), padding=(1, 1))
        (1): ReLU(inplace=True)
        (2): Conv2d(64, 64, kernel_size=(3, 3), stride=(1, 1), padding=(1, 1))
      )
    )
    (8): ResBlock(
      (body): Sequential(
        (0): Conv2d(64, 64, kernel_size=(3, 3), stride=(1, 1), padding=(1, 1))
        (1): ReLU(inplace=True)
        (2): Conv2d(64, 64, kernel_size=(3, 3), stride=(1, 1), padding=(1, 1))
      )
    )
    (9): ResBlock(
      (body): Sequential(
        (0): Conv2d(64, 64, kernel_size=(3, 3), stride=(1, 1), padding=(1, 1))
        (1): ReLU(inplace=True)
        (2): Conv2d(64, 64, kernel_size=(3, 3), stride=(1, 1), padding=(1, 1))
      )
    )
    (10): ResBlock(
      (body): Sequential(
        (0): Conv2d(64, 64, kernel_size=(3, 3), stride=(1, 1), padding=(1, 1))
        (1): ReLU(inplace=True)
        (2): Conv2d(64, 64, kernel_size=(3, 3), stride=(1, 1), padding=(1, 1))
      )
    )
    (11): ResBlock(
      (body): Sequential(
        (0): Conv2d(64, 64, kernel_size=(3, 3), stride=(1, 1), padding=(1, 1))
        (1): ReLU(inplace=True)
        (2): Conv2d(64, 64, kernel_size=(3, 3), stride=(1, 1), padding=(1, 1))
      )
    )
    (12): ResBlock(
      (body): Sequential(
        (0): Conv2d(64, 64, kernel_size=(3, 3), stride=(1, 1), padding=(1, 1))
        (1): ReLU(inplace=True)
        (2): Conv2d(64, 64, kernel_size=(3, 3), stride=(1, 1), padding=(1, 1))
      )
    )
    (13): ResBlock(
      (body): Sequential(
        (0): Conv2d(64, 64, kernel_size=(3, 3), stride=(1, 1), padding=(1, 1))
        (1): ReLU(inplace=True)
        (2): Conv2d(64, 64, kernel_size=(3, 3), stride=(1, 1), padding=(1, 1))
      )
    )
    (14): ResBlock(
      (body): Sequential(
        (0): Conv2d(64, 64, kernel_size=(3, 3), stride=(1, 1), padding=(1, 1))
        (1): ReLU(inplace=True)
        (2): Conv2d(64, 64, kernel_size=(3, 3), stride=(1, 1), padding=(1, 1))
      )
    )
    (15): ResBlock(
      (body): Sequential(
        (0): Conv2d(64, 64, kernel_size=(3, 3), stride=(1, 1), padding=(1, 1))
        (1): ReLU(inplace=True)
        (2): Conv2d(64, 64, kernel_size=(3, 3), stride=(1, 1), padding=(1, 1))
      )
    )
    (16): Conv2d(64, 64, kernel_size=(3, 3), stride=(1, 1), padding=(1, 1))
  )
  (tail): Sequential(
    (0): Upsampler(
      (0): Conv2d(64, 256, kernel_size=(3, 3), stride=(1, 1), padding=(1, 1))
      (1): PixelShuffle(upscale_factor=2)
    )
    (1): Conv2d(64, 3, kernel_size=(3, 3), stride=(1, 1), padding=(1, 1))
  )
)
[Epoch 1]	Learning rate: 1.00e-4
EDSR(
…
    (17): BatchNorm2d(64, eps=1e-05, momentum=0.1, affine=True, track_running_stats=True)
  )
  (tail): Sequential(
    (0): Upsampler(
      (0): Conv2d(64, 256, kernel_size=(3, 3), stride=(1, 1), padding=(True, True))
      (1): PixelShuffle(upscale_factor=2)
      (2): BatchNorm2d(64, eps=1e-05, momentum=0.1, affine=True, track_running_stats=True)
    )
    (1): adder2d()
    (2): Power_Activation()
  )
)
[Epoch 1]	Learning rate: 3.00e-3
[400/4000]	[L1: 207.3597]	28.7+69.4s
[800/4000]	[L1: 146.6382]	24.2+60.8s
[1200/4000]	[L1: 120.9978]	24.2+60.9s
[1600/4000]	[L1: 107.4194]	24.2+60.8s
[2000/4000]	[L1: 99.0086]	24.2+60.8s
[2400/4000]	[L1: 93.2465]	24.2+61.0s
[2800/4000]	[L1: 89.1956]	24.2+61.1s
[3200/4000]	[L1: 85.8813]	24.3+61.1s
[3600/4000]	[L1: 83.4586]	24.3+61.3s
[4000/4000]	[L1: 81.5694]	24.4+61.2s

Evaluation:
EDSR(
  (sub_mean): MeanShift(3, 3, kernel_size=(1, 1), stride=(1, 1))
  (add_mean): MeanShift(3, 3, kernel_size=(1, 1), stride=(1, 1))
  (head): Sequential(
    (0): depthwise_separable_conv(
      (depthwise): adder2d()
      (pointwise): adder2d()
    )
  )
  (body): Sequential(
    (0): ResBlock(
      (body): Sequential(
        (0): depthwise_separable_conv(
          (depthwise): adder2d()
          (pointwise): adder2d()
        )
        (1): BatchNorm2d(64, eps=1e-05, momentum=0.1, affine=True, track_running_stats=True)
        (2): ReLU(inplace=True)
        (3): BatchNorm2d(64, eps=1e-05, momentum=0.1, affine=True, track_running_stats=True)
      )
    )
    (1): ResBlock(
      (body): Sequential(
        (0): depthwise_separable_conv(
          (depthwise): adder2d()
          (pointwise): adder2d()
        )
        (1): BatchNorm2d(64, eps=1e-05, momentum=0.1, affine=True, track_running_stats=True)
        (2): ReLU(inplace=True)
        (3): BatchNorm2d(64, eps=1e-05, momentum=0.1, affine=True, track_running_stats=True)
      )
    )
    (2): ResBlock(
      (body): Sequential(
        (0): depthwise_separable_conv(
          (depthwise): adder2d()
          (pointwise): adder2d()
        )
        (1): BatchNorm2d(64, eps=1e-05, momentum=0.1, affine=True, track_running_stats=True)
        (2): ReLU(inplace=True)
        (3): BatchNorm2d(64, eps=1e-05, momentum=0.1, affine=True, track_running_stats=True)
      )
    )
    (3): ResBlock(
      (body): Sequential(
        (0): depthwise_separable_conv(
          (depthwise): adder2d()
          (pointwise): adder2d()
        )
        (1): BatchNorm2d(64, eps=1e-05, momentum=0.1, affine=True, track_running_stats=True)
        (2): ReLU(inplace=True)
        (3): BatchNorm2d(64, eps=1e-05, momentum=0.1, affine=True, track_running_stats=True)
      )
    )
    (4): ResBlock(
      (body): Sequential(
        (0): depthwise_separable_conv(
          (depthwise): adder2d()
          (pointwise): adder2d()
        )
        (1): BatchNorm2d(64, eps=1e-05, momentum=0.1, affine=True, track_running_stats=True)
        (2): ReLU(inplace=True)
        (3): BatchNorm2d(64, eps=1e-05, momentum=0.1, affine=True, track_running_stats=True)
      )
    )
    (5): ResBlock(
      (body): Sequential(
        (0): depthwise_separable_conv(
          (depthwise): adder2d()
          (pointwise): adder2d()
        )
        (1): BatchNorm2d(64, eps=1e-05, momentum=0.1, affine=True, track_running_stats=True)
        (2): ReLU(inplace=True)
        (3): BatchNorm2d(64, eps=1e-05, momentum=0.1, affine=True, track_running_stats=True)
      )
    )
    (6): ResBlock(
      (body): Sequential(
        (0): depthwise_separable_conv(
          (depthwise): adder2d()
          (pointwise): adder2d()
        )
        (1): BatchNorm2d(64, eps=1e-05, momentum=0.1, affine=True, track_running_stats=True)
        (2): ReLU(inplace=True)
        (3): BatchNorm2d(64, eps=1e-05, momentum=0.1, affine=True, track_running_stats=True)
      )
    )
    (7): ResBlock(
      (body): Sequential(
        (0): depthwise_separable_conv(
          (depthwise): adder2d()
          (pointwise): adder2d()
        )
        (1): BatchNorm2d(64, eps=1e-05, momentum=0.1, affine=True, track_running_stats=True)
        (2): ReLU(inplace=True)
        (3): BatchNorm2d(64, eps=1e-05, momentum=0.1, affine=True, track_running_stats=True)
      )
    )
    (8): ResBlock(
      (body): Sequential(
        (0): depthwise_separable_conv(
          (depthwise): adder2d()
          (pointwise): adder2d()
        )
        (1): BatchNorm2d(64, eps=1e-05, momentum=0.1, affine=True, track_running_stats=True)
        (2): ReLU(inplace=True)
        (3): BatchNorm2d(64, eps=1e-05, momentum=0.1, affine=True, track_running_stats=True)
      )
    )
    (9): ResBlock(
      (body): Sequential(
        (0): depthwise_separable_conv(
          (depthwise): adder2d()
          (pointwise): adder2d()
        )
        (1): BatchNorm2d(64, eps=1e-05, momentum=0.1, affine=True, track_running_stats=True)
        (2): ReLU(inplace=True)
        (3): BatchNorm2d(64, eps=1e-05, momentum=0.1, affine=True, track_running_stats=True)
      )
    )
    (10): ResBlock(
      (body): Sequential(
        (0): depthwise_separable_conv(
          (depthwise): adder2d()
          (pointwise): adder2d()
        )
        (1): BatchNorm2d(64, eps=1e-05, momentum=0.1, affine=True, track_running_stats=True)
        (2): ReLU(inplace=True)
        (3): BatchNorm2d(64, eps=1e-05, momentum=0.1, affine=True, track_running_stats=True)
      )
    )
    (11): ResBlock(
      (body): Sequential(
        (0): depthwise_separable_conv(
          (depthwise): adder2d()
          (pointwise): adder2d()
        )
        (1): BatchNorm2d(64, eps=1e-05, momentum=0.1, affine=True, track_running_stats=True)
        (2): ReLU(inplace=True)
        (3): BatchNorm2d(64, eps=1e-05, momentum=0.1, affine=True, track_running_stats=True)
      )
    )
    (12): ResBlock(
      (body): Sequential(
        (0): depthwise_separable_conv(
          (depthwise): adder2d()
          (pointwise): adder2d()
        )
        (1): BatchNorm2d(64, eps=1e-05, momentum=0.1, affine=True, track_running_stats=True)
        (2): ReLU(inplace=True)
        (3): BatchNorm2d(64, eps=1e-05, momentum=0.1, affine=True, track_running_stats=True)
      )
    )
    (13): ResBlock(
      (body): Sequential(
        (0): depthwise_separable_conv(
          (depthwise): adder2d()
          (pointwise): adder2d()
        )
        (1): BatchNorm2d(64, eps=1e-05, momentum=0.1, affine=True, track_running_stats=True)
        (2): ReLU(inplace=True)
        (3): BatchNorm2d(64, eps=1e-05, momentum=0.1, affine=True, track_running_stats=True)
      )
    )
    (14): ResBlock(
      (body): Sequential(
        (0): depthwise_separable_conv(
          (depthwise): adder2d()
          (pointwise): adder2d()
        )
        (1): BatchNorm2d(64, eps=1e-05, momentum=0.1, affine=True, track_running_stats=True)
        (2): ReLU(inplace=True)
        (3): BatchNorm2d(64, eps=1e-05, momentum=0.1, affine=True, track_running_stats=True)
      )
    )
    (15): ResBlock(
      (body): Sequential(
        (0): depthwise_separable_conv(
          (depthwise): adder2d()
          (pointwise): adder2d()
        )
        (1): BatchNorm2d(64, eps=1e-05, momentum=0.1, affine=True, track_running_stats=True)
        (2): ReLU(inplace=True)
        (3): BatchNorm2d(64, eps=1e-05, momentum=0.1, affine=True, track_running_stats=True)
      )
    )
    (16): depthwise_separable_conv(
      (depthwise): adder2d()
      (pointwise): adder2d()
    )
    (17): BatchNorm2d(64, eps=1e-05, momentum=0.1, affine=True, track_running_stats=True)
  )
  (tail): Sequential(
    (0): Upsampler(
      (0): Conv2d(64, 256, kernel_size=(3, 3), stride=(1, 1), padding=(True, True))
      (1): PixelShuffle(upscale_factor=2)
      (2): BatchNorm2d(64, eps=1e-05, momentum=0.1, affine=True, track_running_stats=True)
    )
    (1): depthwise_separable_conv(
      (depthwise): adder2d()
      (pointwise): adder2d()
    )
    (2): Power_Activation()
  )
)
[Epoch 1]	Learning rate: 3.00e-3
[400/4000]	[L1: 9746.7695]	18.1+33.3s
[800/4000]	[L1: 6023.2754]	15.2+22.3s
[1200/4000]	[L1: 4399.6636]	15.3+22.5s
[1600/4000]	[L1: 3480.6106]	15.3+22.6s
[2000/4000]	[L1: 2884.4099]	15.3+22.6s
[2400/4000]	[L1: 2466.7444]	15.3+22.6s
[2800/4000]	[L1: 2156.4893]	15.3+23.0s
[3200/4000]	[L1: 1916.5941]	15.4+23.5s
[3600/4000]	[L1: 1725.4670]	15.3+24.5s
[4000/4000]	[L1: 1569.6456]	15.3+22.6s

Evaluation:
EDSR(
  (sub_mean): MeanShift(3, 3, kernel_size=(1, 1), stride=(1, 1))
  (add_mean): MeanShift(3, 3, kernel_size=(1, 1), stride=(1, 1))
  (head): Sequential(
    (0): adder2d()
  )
  (body): Sequential(
    (0): ResBlock(
      (body): Sequential(
        (0): adder2d()
        (1): BatchNorm2d(64, eps=1e-05, momentum=0.1, affine=True, track_running_stats=True)
        (2): ReLU(inplace=True)
        (3): BatchNorm2d(64, eps=1e-05, momentum=0.1, affine=True, track_running_stats=True)
      )
    )
    (1): ResBlock(
      (body): Sequential(
        (0): adder2d()
        (1): BatchNorm2d(64, eps=1e-05, momentum=0.1, affine=True, track_running_stats=True)
        (2): ReLU(inplace=True)
        (3): BatchNorm2d(64, eps=1e-05, momentum=0.1, affine=True, track_running_stats=True)
      )
    )
    (2): ResBlock(
      (body): Sequential(
        (0): adder2d()
        (1): BatchNorm2d(64, eps=1e-05, momentum=0.1, affine=True, track_running_stats=True)
        (2): ReLU(inplace=True)
        (3): BatchNorm2d(64, eps=1e-05, momentum=0.1, affine=True, track_running_stats=True)
      )
    )
    (3): ResBlock(
      (body): Sequential(
        (0): adder2d()
        (1): BatchNorm2d(64, eps=1e-05, momentum=0.1, affine=True, track_running_stats=True)
        (2): ReLU(inplace=True)
        (3): BatchNorm2d(64, eps=1e-05, momentum=0.1, affine=True, track_running_stats=True)
      )
    )
    (4): ResBlock(
      (body): Sequential(
        (0): adder2d()
        (1): BatchNorm2d(64, eps=1e-05, momentum=0.1, affine=True, track_running_stats=True)
        (2): ReLU(inplace=True)
        (3): BatchNorm2d(64, eps=1e-05, momentum=0.1, affine=True, track_running_stats=True)
      )
    )
    (5): ResBlock(
      (body): Sequential(
        (0): adder2d()
        (1): BatchNorm2d(64, eps=1e-05, momentum=0.1, affine=True, track_running_stats=True)
        (2): ReLU(inplace=True)
        (3): BatchNorm2d(64, eps=1e-05, momentum=0.1, affine=True, track_running_stats=True)
      )
    )
    (6): ResBlock(
      (body): Sequential(
        (0): adder2d()
        (1): BatchNorm2d(64, eps=1e-05, momentum=0.1, affine=True, track_running_stats=True)
        (2): ReLU(inplace=True)
        (3): BatchNorm2d(64, eps=1e-05, momentum=0.1, affine=True, track_running_stats=True)
      )
    )
    (7): ResBlock(
      (body): Sequential(
        (0): adder2d()
        (1): BatchNorm2d(64, eps=1e-05, momentum=0.1, affine=True, track_running_stats=True)
        (2): ReLU(inplace=True)
        (3): BatchNorm2d(64, eps=1e-05, momentum=0.1, affine=True, track_running_stats=True)
      )
    )
    (8): ResBlock(
      (body): Sequential(
        (0): adder2d()
        (1): BatchNorm2d(64, eps=1e-05, momentum=0.1, affine=True, track_running_stats=True)
        (2): ReLU(inplace=True)
        (3): BatchNorm2d(64, eps=1e-05, momentum=0.1, affine=True, track_running_stats=True)
      )
    )
    (9): ResBlock(
      (body): Sequential(
        (0): adder2d()
        (1): BatchNorm2d(64, eps=1e-05, momentum=0.1, affine=True, track_running_stats=True)
        (2): ReLU(inplace=True)
        (3): BatchNorm2d(64, eps=1e-05, momentum=0.1, affine=True, track_running_stats=True)
      )
    )
    (10): ResBlock(
      (body): Sequential(
        (0): adder2d()
        (1): BatchNorm2d(64, eps=1e-05, momentum=0.1, affine=True, track_running_stats=True)
        (2): ReLU(inplace=True)
        (3): BatchNorm2d(64, eps=1e-05, momentum=0.1, affine=True, track_running_stats=True)
      )
    )
    (11): ResBlock(
      (body): Sequential(
        (0): adder2d()
        (1): BatchNorm2d(64, eps=1e-05, momentum=0.1, affine=True, track_running_stats=True)
        (2): ReLU(inplace=True)
        (3): BatchNorm2d(64, eps=1e-05, momentum=0.1, affine=True, track_running_stats=True)
      )
    )
    (12): ResBlock(
      (body): Sequential(
        (0): adder2d()
        (1): BatchNorm2d(64, eps=1e-05, momentum=0.1, affine=True, track_running_stats=True)
        (2): ReLU(inplace=True)
        (3): BatchNorm2d(64, eps=1e-05, momentum=0.1, affine=True, track_running_stats=True)
      )
    )
    (13): ResBlock(
      (body): Sequential(
        (0): adder2d()
        (1): BatchNorm2d(64, eps=1e-05, momentum=0.1, affine=True, track_running_stats=True)
        (2): ReLU(inplace=True)
        (3): BatchNorm2d(64, eps=1e-05, momentum=0.1, affine=True, track_running_stats=True)
      )
    )
    (14): ResBlock(
      (body): Sequential(
        (0): adder2d()
        (1): BatchNorm2d(64, eps=1e-05, momentum=0.1, affine=True, track_running_stats=True)
        (2): ReLU(inplace=True)
        (3): BatchNorm2d(64, eps=1e-05, momentum=0.1, affine=True, track_running_stats=True)
      )
    )
    (15): ResBlock(
      (body): Sequential(
        (0): adder2d()
        (1): BatchNorm2d(64, eps=1e-05, momentum=0.1, affine=True, track_running_stats=True)
        (2): ReLU(inplace=True)
        (3): BatchNorm2d(64, eps=1e-05, momentum=0.1, affine=True, track_running_stats=True)
      )
    )
    (16): adder2d()
    (17): BatchNorm2d(64, eps=1e-05, momentum=0.1, affine=True, track_running_stats=True)
  )
  (tail): Sequential(
    (0): Upsampler(
      (0): Conv2d(64, 256, kernel_size=(3, 3), stride=(1, 1), padding=(True, True))
      (1): PixelShuffle(upscale_factor=2)
      (2): BatchNorm2d(64, eps=1e-05, momentum=0.1, affine=True, track_running_stats=True)
    )
    (1): adder2d()
    (2): Power_Activation()
  )
)
[Epoch 1]	Learning rate: 3.00e-3
[400/4000]	[L1: 209.0891]	26.1+70.9s
[800/4000]	[L1: 147.9885]	23.9+61.0s
[1200/4000]	[L1: 122.5952]	24.0+61.1s
[1600/4000]	[L1: 108.8594]	23.9+61.1s
[2000/4000]	[L1: 99.9792]	24.0+61.2s
[2400/4000]	[L1: 94.2391]	24.1+61.5s
[2800/4000]	[L1: 89.9156]	24.0+61.6s
[3200/4000]	[L1: 86.8461]	24.1+61.6s
[3600/4000]	[L1: 84.2296]	24.1+61.6s
[4000/4000]	[L1: 82.0861]	24.2+61.7s

Evaluation:
EDSR(
  (sub_mean): MeanShift(3, 3, kernel_size=(1, 1), stride=(1, 1))
  (add_mean): MeanShift(3, 3, kernel_size=(1, 1), stride=(1, 1))
  (head): Sequential(
    (0): adder2d()
  )
  (body): Sequential(
    (0): ResBlock(
      (body): Sequential(
        (0): adder2d()
        (1): BatchNorm2d(64, eps=1e-05, momentum=0.1, affine=True, track_running_stats=True)
        (2): ReLU(inplace=True)
        (3): adder2d()
        (4): BatchNorm2d(64, eps=1e-05, momentum=0.1, affine=True, track_running_stats=True)
      )
    )
    (1): ResBlock(
      (body): Sequential(
        (0): adder2d()
        (1): BatchNorm2d(64, eps=1e-05, momentum=0.1, affine=True, track_running_stats=True)
        (2): ReLU(inplace=True)
        (3): adder2d()
        (4): BatchNorm2d(64, eps=1e-05, momentum=0.1, affine=True, track_running_stats=True)
      )
    )
    (2): ResBlock(
      (body): Sequential(
        (0): adder2d()
        (1): BatchNorm2d(64, eps=1e-05, momentum=0.1, affine=True, track_running_stats=True)
        (2): ReLU(inplace=True)
        (3): adder2d()
        (4): BatchNorm2d(64, eps=1e-05, momentum=0.1, affine=True, track_running_stats=True)
      )
    )
    (3): ResBlock(
      (body): Sequential(
        (0): adder2d()
        (1): BatchNorm2d(64, eps=1e-05, momentum=0.1, affine=True, track_running_stats=True)
        (2): ReLU(inplace=True)
        (3): adder2d()
        (4): BatchNorm2d(64, eps=1e-05, momentum=0.1, affine=True, track_running_stats=True)
      )
    )
    (4): ResBlock(
      (body): Sequential(
        (0): adder2d()
        (1): BatchNorm2d(64, eps=1e-05, momentum=0.1, affine=True, track_running_stats=True)
        (2): ReLU(inplace=True)
        (3): adder2d()
        (4): BatchNorm2d(64, eps=1e-05, momentum=0.1, affine=True, track_running_stats=True)
      )
    )
    (5): ResBlock(
      (body): Sequential(
        (0): adder2d()
        (1): BatchNorm2d(64, eps=1e-05, momentum=0.1, affine=True, track_running_stats=True)
        (2): ReLU(inplace=True)
        (3): adder2d()
        (4): BatchNorm2d(64, eps=1e-05, momentum=0.1, affine=True, track_running_stats=True)
      )
    )
    (6): ResBlock(
      (body): Sequential(
        (0): adder2d()
        (1): BatchNorm2d(64, eps=1e-05, momentum=0.1, affine=True, track_running_stats=True)
        (2): ReLU(inplace=True)
        (3): adder2d()
        (4): BatchNorm2d(64, eps=1e-05, momentum=0.1, affine=True, track_running_stats=True)
      )
    )
    (7): ResBlock(
      (body): Sequential(
        (0): adder2d()
        (1): BatchNorm2d(64, eps=1e-05, momentum=0.1, affine=True, track_running_stats=True)
        (2): ReLU(inplace=True)
        (3): adder2d()
        (4): BatchNorm2d(64, eps=1e-05, momentum=0.1, affine=True, track_running_stats=True)
      )
    )
    (8): ResBlock(
      (body): Sequential(
        (0): adder2d()
        (1): BatchNorm2d(64, eps=1e-05, momentum=0.1, affine=True, track_running_stats=True)
        (2): ReLU(inplace=True)
        (3): adder2d()
        (4): BatchNorm2d(64, eps=1e-05, momentum=0.1, affine=True, track_running_stats=True)
      )
    )
    (9): ResBlock(
      (body): Sequential(
        (0): adder2d()
        (1): BatchNorm2d(64, eps=1e-05, momentum=0.1, affine=True, track_running_stats=True)
        (2): ReLU(inplace=True)
        (3): adder2d()
        (4): BatchNorm2d(64, eps=1e-05, momentum=0.1, affine=True, track_running_stats=True)
      )
    )
    (10): ResBlock(
      (body): Sequential(
        (0): adder2d()
        (1): BatchNorm2d(64, eps=1e-05, momentum=0.1, affine=True, track_running_stats=True)
        (2): ReLU(inplace=True)
        (3): adder2d()
        (4): BatchNorm2d(64, eps=1e-05, momentum=0.1, affine=True, track_running_stats=True)
      )
    )
    (11): ResBlock(
      (body): Sequential(
        (0): adder2d()
        (1): BatchNorm2d(64, eps=1e-05, momentum=0.1, affine=True, track_running_stats=True)
        (2): ReLU(inplace=True)
        (3): adder2d()
        (4): BatchNorm2d(64, eps=1e-05, momentum=0.1, affine=True, track_running_stats=True)
      )
    )
    (12): ResBlock(
      (body): Sequential(
        (0): adder2d()
        (1): BatchNorm2d(64, eps=1e-05, momentum=0.1, affine=True, track_running_stats=True)
        (2): ReLU(inplace=True)
        (3): adder2d()
        (4): BatchNorm2d(64, eps=1e-05, momentum=0.1, affine=True, track_running_stats=True)
      )
    )
    (13): ResBlock(
      (body): Sequential(
        (0): adder2d()
        (1): BatchNorm2d(64, eps=1e-05, momentum=0.1, affine=True, track_running_stats=True)
        (2): ReLU(inplace=True)
        (3): adder2d()
        (4): BatchNorm2d(64, eps=1e-05, momentum=0.1, affine=True, track_running_stats=True)
      )
    )
    (14): ResBlock(
      (body): Sequential(
        (0): adder2d()
        (1): BatchNorm2d(64, eps=1e-05, momentum=0.1, affine=True, track_running_stats=True)
        (2): ReLU(inplace=True)
        (3): adder2d()
        (4): BatchNorm2d(64, eps=1e-05, momentum=0.1, affine=True, track_running_stats=True)
      )
    )
    (15): ResBlock(
      (body): Sequential(
        (0): adder2d()
        (1): BatchNorm2d(64, eps=1e-05, momentum=0.1, affine=True, track_running_stats=True)
        (2): ReLU(inplace=True)
        (3): adder2d()
        (4): BatchNorm2d(64, eps=1e-05, momentum=0.1, affine=True, track_running_stats=True)
      )
    )
    (16): adder2d()
    (17): BatchNorm2d(64, eps=1e-05, momentum=0.1, affine=True, track_running_stats=True)
  )
  (tail): Sequential(
    (0): Upsampler(
      (0): Conv2d(64, 256, kernel_size=(3, 3), stride=(1, 1), padding=(True, True))
      (1): PixelShuffle(upscale_factor=2)
      (2): BatchNorm2d(64, eps=1e-05, momentum=0.1, affine=True, track_running_stats=True)
    )
    (1): adder2d()
    (2): Power_Activation()
  )
)
[Epoch 1]	Learning rate: 3.00e-3
[400/4000]	[L1: 208.5742]	45.5+78.4s
[800/4000]	[L1: 147.4804]	27.3+67.0s
[1200/4000]	[L1: 121.5250]	27.3+67.1s
[1600/4000]	[L1: 107.8264]	27.3+67.1s
[2000/4000]	[L1: 99.3455]	27.3+67.1s
[2400/4000]	[L1: 93.5248]	27.4+67.4s
[2800/4000]	[L1: 89.4324]	27.4+67.6s
[3200/4000]	[L1: 86.0819]	27.5+67.6s
EDSR(
  (sub_mean): MeanShift(3, 3, kernel_size=(1, 1), stride=(1, 1))
  (add_mean): MeanShift(3, 3, kernel_size=(1, 1), stride=(1, 1))
  (head): Sequential(
    (0): adder2d()
  )
  (body): Sequential(
    (0): ResBlock(
      (body): Sequential(
        (0): adder2d()
        (1): BatchNorm2d(64, eps=1e-05, momentum=0.1, affine=True, track_running_stats=True)
        (2): ReLU(inplace=True)
        (3): adder2d()
        (4): BatchNorm2d(64, eps=1e-05, momentum=0.1, affine=True, track_running_stats=True)
        (5): adder2d()
        (6): BatchNorm2d(64, eps=1e-05, momentum=0.1, affine=True, track_running_stats=True)
        (7): ReLU(inplace=True)
        (8): adder2d()
        (9): BatchNorm2d(64, eps=1e-05, momentum=0.1, affine=True, track_running_stats=True)
      )
    )
    (1): ResBlock(
      (body): Sequential(
        (0): adder2d()
        (1): BatchNorm2d(64, eps=1e-05, momentum=0.1, affine=True, track_running_stats=True)
        (2): ReLU(inplace=True)
        (3): adder2d()
        (4): BatchNorm2d(64, eps=1e-05, momentum=0.1, affine=True, track_running_stats=True)
        (5): adder2d()
        (6): BatchNorm2d(64, eps=1e-05, momentum=0.1, affine=True, track_running_stats=True)
        (7): ReLU(inplace=True)
        (8): adder2d()
        (9): BatchNorm2d(64, eps=1e-05, momentum=0.1, affine=True, track_running_stats=True)
      )
    )
    (2): ResBlock(
      (body): Sequential(
        (0): adder2d()
        (1): BatchNorm2d(64, eps=1e-05, momentum=0.1, affine=True, track_running_stats=True)
        (2): ReLU(inplace=True)
        (3): adder2d()
        (4): BatchNorm2d(64, eps=1e-05, momentum=0.1, affine=True, track_running_stats=True)
        (5): adder2d()
        (6): BatchNorm2d(64, eps=1e-05, momentum=0.1, affine=True, track_running_stats=True)
        (7): ReLU(inplace=True)
        (8): adder2d()
        (9): BatchNorm2d(64, eps=1e-05, momentum=0.1, affine=True, track_running_stats=True)
      )
    )
    (3): ResBlock(
      (body): Sequential(
        (0): adder2d()
        (1): BatchNorm2d(64, eps=1e-05, momentum=0.1, affine=True, track_running_stats=True)
        (2): ReLU(inplace=True)
        (3): adder2d()
        (4): BatchNorm2d(64, eps=1e-05, momentum=0.1, affine=True, track_running_stats=True)
        (5): adder2d()
        (6): BatchNorm2d(64, eps=1e-05, momentum=0.1, affine=True, track_running_stats=True)
        (7): ReLU(inplace=True)
        (8): adder2d()
        (9): BatchNorm2d(64, eps=1e-05, momentum=0.1, affine=True, track_running_stats=True)
      )
    )
    (4): ResBlock(
      (body): Sequential(
        (0): adder2d()
        (1): BatchNorm2d(64, eps=1e-05, momentum=0.1, affine=True, track_running_stats=True)
        (2): ReLU(inplace=True)
        (3): adder2d()
        (4): BatchNorm2d(64, eps=1e-05, momentum=0.1, affine=True, track_running_stats=True)
        (5): adder2d()
        (6): BatchNorm2d(64, eps=1e-05, momentum=0.1, affine=True, track_running_stats=True)
        (7): ReLU(inplace=True)
        (8): adder2d()
        (9): BatchNorm2d(64, eps=1e-05, momentum=0.1, affine=True, track_running_stats=True)
      )
    )
    (5): ResBlock(
      (body): Sequential(
        (0): adder2d()
        (1): BatchNorm2d(64, eps=1e-05, momentum=0.1, affine=True, track_running_stats=True)
        (2): ReLU(inplace=True)
        (3): adder2d()
        (4): BatchNorm2d(64, eps=1e-05, momentum=0.1, affine=True, track_running_stats=True)
        (5): adder2d()
        (6): BatchNorm2d(64, eps=1e-05, momentum=0.1, affine=True, track_running_stats=True)
        (7): ReLU(inplace=True)
        (8): adder2d()
        (9): BatchNorm2d(64, eps=1e-05, momentum=0.1, affine=True, track_running_stats=True)
      )
    )
    (6): ResBlock(
      (body): Sequential(
        (0): adder2d()
        (1): BatchNorm2d(64, eps=1e-05, momentum=0.1, affine=True, track_running_stats=True)
        (2): ReLU(inplace=True)
        (3): adder2d()
        (4): BatchNorm2d(64, eps=1e-05, momentum=0.1, affine=True, track_running_stats=True)
        (5): adder2d()
        (6): BatchNorm2d(64, eps=1e-05, momentum=0.1, affine=True, track_running_stats=True)
        (7): ReLU(inplace=True)
        (8): adder2d()
        (9): BatchNorm2d(64, eps=1e-05, momentum=0.1, affine=True, track_running_stats=True)
      )
    )
    (7): ResBlock(
      (body): Sequential(
        (0): adder2d()
        (1): BatchNorm2d(64, eps=1e-05, momentum=0.1, affine=True, track_running_stats=True)
        (2): ReLU(inplace=True)
        (3): adder2d()
        (4): BatchNorm2d(64, eps=1e-05, momentum=0.1, affine=True, track_running_stats=True)
        (5): adder2d()
        (6): BatchNorm2d(64, eps=1e-05, momentum=0.1, affine=True, track_running_stats=True)
        (7): ReLU(inplace=True)
        (8): adder2d()
        (9): BatchNorm2d(64, eps=1e-05, momentum=0.1, affine=True, track_running_stats=True)
      )
    )
    (8): ResBlock(
      (body): Sequential(
        (0): adder2d()
        (1): BatchNorm2d(64, eps=1e-05, momentum=0.1, affine=True, track_running_stats=True)
        (2): ReLU(inplace=True)
        (3): adder2d()
        (4): BatchNorm2d(64, eps=1e-05, momentum=0.1, affine=True, track_running_stats=True)
        (5): adder2d()
        (6): BatchNorm2d(64, eps=1e-05, momentum=0.1, affine=True, track_running_stats=True)
        (7): ReLU(inplace=True)
        (8): adder2d()
        (9): BatchNorm2d(64, eps=1e-05, momentum=0.1, affine=True, track_running_stats=True)
      )
    )
    (9): ResBlock(
      (body): Sequential(
        (0): adder2d()
        (1): BatchNorm2d(64, eps=1e-05, momentum=0.1, affine=True, track_running_stats=True)
        (2): ReLU(inplace=True)
        (3): adder2d()
        (4): BatchNorm2d(64, eps=1e-05, momentum=0.1, affine=True, track_running_stats=True)
        (5): adder2d()
        (6): BatchNorm2d(64, eps=1e-05, momentum=0.1, affine=True, track_running_stats=True)
        (7): ReLU(inplace=True)
        (8): adder2d()
        (9): BatchNorm2d(64, eps=1e-05, momentum=0.1, affine=True, track_running_stats=True)
      )
    )
    (10): ResBlock(
      (body): Sequential(
        (0): adder2d()
        (1): BatchNorm2d(64, eps=1e-05, momentum=0.1, affine=True, track_running_stats=True)
        (2): ReLU(inplace=True)
        (3): adder2d()
        (4): BatchNorm2d(64, eps=1e-05, momentum=0.1, affine=True, track_running_stats=True)
        (5): adder2d()
        (6): BatchNorm2d(64, eps=1e-05, momentum=0.1, affine=True, track_running_stats=True)
        (7): ReLU(inplace=True)
        (8): adder2d()
        (9): BatchNorm2d(64, eps=1e-05, momentum=0.1, affine=True, track_running_stats=True)
      )
    )
    (11): ResBlock(
      (body): Sequential(
        (0): adder2d()
        (1): BatchNorm2d(64, eps=1e-05, momentum=0.1, affine=True, track_running_stats=True)
        (2): ReLU(inplace=True)
        (3): adder2d()
        (4): BatchNorm2d(64, eps=1e-05, momentum=0.1, affine=True, track_running_stats=True)
        (5): adder2d()
        (6): BatchNorm2d(64, eps=1e-05, momentum=0.1, affine=True, track_running_stats=True)
        (7): ReLU(inplace=True)
        (8): adder2d()
        (9): BatchNorm2d(64, eps=1e-05, momentum=0.1, affine=True, track_running_stats=True)
      )
    )
    (12): ResBlock(
      (body): Sequential(
        (0): adder2d()
        (1): BatchNorm2d(64, eps=1e-05, momentum=0.1, affine=True, track_running_stats=True)
        (2): ReLU(inplace=True)
        (3): adder2d()
        (4): BatchNorm2d(64, eps=1e-05, momentum=0.1, affine=True, track_running_stats=True)
        (5): adder2d()
        (6): BatchNorm2d(64, eps=1e-05, momentum=0.1, affine=True, track_running_stats=True)
        (7): ReLU(inplace=True)
        (8): adder2d()
        (9): BatchNorm2d(64, eps=1e-05, momentum=0.1, affine=True, track_running_stats=True)
      )
    )
    (13): ResBlock(
      (body): Sequential(
        (0): adder2d()
        (1): BatchNorm2d(64, eps=1e-05, momentum=0.1, affine=True, track_running_stats=True)
        (2): ReLU(inplace=True)
        (3): adder2d()
        (4): BatchNorm2d(64, eps=1e-05, momentum=0.1, affine=True, track_running_stats=True)
        (5): adder2d()
        (6): BatchNorm2d(64, eps=1e-05, momentum=0.1, affine=True, track_running_stats=True)
        (7): ReLU(inplace=True)
        (8): adder2d()
        (9): BatchNorm2d(64, eps=1e-05, momentum=0.1, affine=True, track_running_stats=True)
      )
    )
    (14): ResBlock(
      (body): Sequential(
        (0): adder2d()
        (1): BatchNorm2d(64, eps=1e-05, momentum=0.1, affine=True, track_running_stats=True)
        (2): ReLU(inplace=True)
        (3): adder2d()
        (4): BatchNorm2d(64, eps=1e-05, momentum=0.1, affine=True, track_running_stats=True)
        (5): adder2d()
        (6): BatchNorm2d(64, eps=1e-05, momentum=0.1, affine=True, track_running_stats=True)
        (7): ReLU(inplace=True)
        (8): adder2d()
        (9): BatchNorm2d(64, eps=1e-05, momentum=0.1, affine=True, track_running_stats=True)
      )
    )
    (15): ResBlock(
      (body): Sequential(
        (0): adder2d()
        (1): BatchNorm2d(64, eps=1e-05, momentum=0.1, affine=True, track_running_stats=True)
        (2): ReLU(inplace=True)
        (3): adder2d()
        (4): BatchNorm2d(64, eps=1e-05, momentum=0.1, affine=True, track_running_stats=True)
        (5): adder2d()
        (6): BatchNorm2d(64, eps=1e-05, momentum=0.1, affine=True, track_running_stats=True)
        (7): ReLU(inplace=True)
        (8): adder2d()
        (9): BatchNorm2d(64, eps=1e-05, momentum=0.1, affine=True, track_running_stats=True)
      )
    )
    (16): adder2d()
    (17): BatchNorm2d(64, eps=1e-05, momentum=0.1, affine=True, track_running_stats=True)
  )
  (tail): Sequential(
    (0): Upsampler(
      (0): Conv2d(64, 256, kernel_size=(3, 3), stride=(1, 1), padding=(True, True))
      (1): PixelShuffle(upscale_factor=2)
      (2): BatchNorm2d(64, eps=1e-05, momentum=0.1, affine=True, track_running_stats=True)
    )
    (1): adder2d()
    (2): Power_Activation()
  )
)
[Epoch 1]	Learning rate: 3.00e-3
[400/4000]	[L1: 207.9035]	55.1+138.6s
EDSR(
  (sub_mean): MeanShift(3, 3, kernel_size=(1, 1), stride=(1, 1))
  (add_mean): MeanShift(3, 3, kernel_size=(1, 1), stride=(1, 1))
  (head): Sequential(
    (0): adder2d()
  )
  (body): Sequential(
    (0): ResBlock(
      (body): Sequential(
        (0): adder2d()
        (1): BatchNorm2d(64, eps=1e-05, momentum=0.1, affine=True, track_running_stats=True)
        (2): ReLU(inplace=True)
        (3): BatchNorm2d(64, eps=1e-05, momentum=0.1, affine=True, track_running_stats=True)
      )
    )
    (1): ResBlock(
      (body): Sequential(
        (0): adder2d()
        (1): BatchNorm2d(64, eps=1e-05, momentum=0.1, affine=True, track_running_stats=True)
        (2): ReLU(inplace=True)
        (3): BatchNorm2d(64, eps=1e-05, momentum=0.1, affine=True, track_running_stats=True)
      )
    )
    (2): ResBlock(
      (body): Sequential(
        (0): adder2d()
        (1): BatchNorm2d(64, eps=1e-05, momentum=0.1, affine=True, track_running_stats=True)
        (2): ReLU(inplace=True)
        (3): BatchNorm2d(64, eps=1e-05, momentum=0.1, affine=True, track_running_stats=True)
      )
    )
    (3): ResBlock(
      (body): Sequential(
        (0): adder2d()
        (1): BatchNorm2d(64, eps=1e-05, momentum=0.1, affine=True, track_running_stats=True)
        (2): ReLU(inplace=True)
        (3): BatchNorm2d(64, eps=1e-05, momentum=0.1, affine=True, track_running_stats=True)
      )
    )
    (4): ResBlock(
      (body): Sequential(
        (0): adder2d()
        (1): BatchNorm2d(64, eps=1e-05, momentum=0.1, affine=True, track_running_stats=True)
        (2): ReLU(inplace=True)
        (3): BatchNorm2d(64, eps=1e-05, momentum=0.1, affine=True, track_running_stats=True)
      )
    )
    (5): ResBlock(
      (body): Sequential(
        (0): adder2d()
        (1): BatchNorm2d(64, eps=1e-05, momentum=0.1, affine=True, track_running_stats=True)
        (2): ReLU(inplace=True)
        (3): BatchNorm2d(64, eps=1e-05, momentum=0.1, affine=True, track_running_stats=True)
      )
    )
    (6): ResBlock(
      (body): Sequential(
        (0): adder2d()
        (1): BatchNorm2d(64, eps=1e-05, momentum=0.1, affine=True, track_running_stats=True)
        (2): ReLU(inplace=True)
        (3): BatchNorm2d(64, eps=1e-05, momentum=0.1, affine=True, track_running_stats=True)
      )
    )
    (7): ResBlock(
      (body): Sequential(
        (0): adder2d()
        (1): BatchNorm2d(64, eps=1e-05, momentum=0.1, affine=True, track_running_stats=True)
        (2): ReLU(inplace=True)
        (3): BatchNorm2d(64, eps=1e-05, momentum=0.1, affine=True, track_running_stats=True)
      )
    )
    (8): ResBlock(
      (body): Sequential(
        (0): adder2d()
        (1): BatchNorm2d(64, eps=1e-05, momentum=0.1, affine=True, track_running_stats=True)
        (2): ReLU(inplace=True)
        (3): BatchNorm2d(64, eps=1e-05, momentum=0.1, affine=True, track_running_stats=True)
      )
    )
    (9): ResBlock(
      (body): Sequential(
        (0): adder2d()
        (1): BatchNorm2d(64, eps=1e-05, momentum=0.1, affine=True, track_running_stats=True)
        (2): ReLU(inplace=True)
        (3): BatchNorm2d(64, eps=1e-05, momentum=0.1, affine=True, track_running_stats=True)
      )
    )
    (10): ResBlock(
      (body): Sequential(
        (0): adder2d()
        (1): BatchNorm2d(64, eps=1e-05, momentum=0.1, affine=True, track_running_stats=True)
        (2): ReLU(inplace=True)
        (3): BatchNorm2d(64, eps=1e-05, momentum=0.1, affine=True, track_running_stats=True)
      )
    )
    (11): ResBlock(
      (body): Sequential(
        (0): adder2d()
        (1): BatchNorm2d(64, eps=1e-05, momentum=0.1, affine=True, track_running_stats=True)
        (2): ReLU(inplace=True)
        (3): BatchNorm2d(64, eps=1e-05, momentum=0.1, affine=True, track_running_stats=True)
      )
    )
    (12): ResBlock(
      (body): Sequential(
        (0): adder2d()
        (1): BatchNorm2d(64, eps=1e-05, momentum=0.1, affine=True, track_running_stats=True)
        (2): ReLU(inplace=True)
        (3): BatchNorm2d(64, eps=1e-05, momentum=0.1, affine=True, track_running_stats=True)
      )
    )
    (13): ResBlock(
      (body): Sequential(
        (0): adder2d()
        (1): BatchNorm2d(64, eps=1e-05, momentum=0.1, affine=True, track_running_stats=True)
        (2): ReLU(inplace=True)
        (3): BatchNorm2d(64, eps=1e-05, momentum=0.1, affine=True, track_running_stats=True)
      )
    )
    (14): ResBlock(
      (body): Sequential(
        (0): adder2d()
        (1): BatchNorm2d(64, eps=1e-05, momentum=0.1, affine=True, track_running_stats=True)
        (2): ReLU(inplace=True)
        (3): BatchNorm2d(64, eps=1e-05, momentum=0.1, affine=True, track_running_stats=True)
      )
    )
    (15): ResBlock(
      (body): Sequential(
        (0): adder2d()
        (1): BatchNorm2d(64, eps=1e-05, momentum=0.1, affine=True, track_running_stats=True)
        (2): ReLU(inplace=True)
        (3): BatchNorm2d(64, eps=1e-05, momentum=0.1, affine=True, track_running_stats=True)
      )
    )
    (16): adder2d()
    (17): BatchNorm2d(64, eps=1e-05, momentum=0.1, affine=True, track_running_stats=True)
  )
  (tail): Sequential(
    (0): Upsampler(
      (0): Conv2d(64, 256, kernel_size=(3, 3), stride=(1, 1), padding=(True, True))
      (1): PixelShuffle(upscale_factor=2)
      (2): BatchNorm2d(64, eps=1e-05, momentum=0.1, affine=True, track_running_stats=True)
    )
    (1): adder2d()
    (2): Power_Activation()
  )
)
[Epoch 1]	Learning rate: 3.00e-3
[400/4000]	[L1: 209.0891]	25.3+70.1s
EDSR(
  (sub_mean): MeanShift(3, 3, kernel_size=(1, 1), stride=(1, 1))
  (add_mean): MeanShift(3, 3, kernel_size=(1, 1), stride=(1, 1))
  (head): Sequential(
    (0): adder2d()
  )
  (body): Sequential(
    (0): ResBlock(
      (body): Sequential(
        (0): BatchNorm2d(64, eps=1e-05, momentum=0.1, affine=True, track_running_stats=True)
        (1): ReLU(inplace=True)
        (2): BatchNorm2d(64, eps=1e-05, momentum=0.1, affine=True, track_running_stats=True)
      )
    )
    (1): ResBlock(
      (body): Sequential(
        (0): BatchNorm2d(64, eps=1e-05, momentum=0.1, affine=True, track_running_stats=True)
        (1): ReLU(inplace=True)
        (2): BatchNorm2d(64, eps=1e-05, momentum=0.1, affine=True, track_running_stats=True)
      )
    )
    (2): ResBlock(
      (body): Sequential(
        (0): BatchNorm2d(64, eps=1e-05, momentum=0.1, affine=True, track_running_stats=True)
        (1): ReLU(inplace=True)
        (2): BatchNorm2d(64, eps=1e-05, momentum=0.1, affine=True, track_running_stats=True)
      )
    )
    (3): ResBlock(
      (body): Sequential(
        (0): BatchNorm2d(64, eps=1e-05, momentum=0.1, affine=True, track_running_stats=True)
        (1): ReLU(inplace=True)
        (2): BatchNorm2d(64, eps=1e-05, momentum=0.1, affine=True, track_running_stats=True)
      )
    )
    (4): ResBlock(
      (body): Sequential(
        (0): BatchNorm2d(64, eps=1e-05, momentum=0.1, affine=True, track_running_stats=True)
        (1): ReLU(inplace=True)
        (2): BatchNorm2d(64, eps=1e-05, momentum=0.1, affine=True, track_running_stats=True)
      )
    )
    (5): ResBlock(
      (body): Sequential(
        (0): BatchNorm2d(64, eps=1e-05, momentum=0.1, affine=True, track_running_stats=True)
        (1): ReLU(inplace=True)
        (2): BatchNorm2d(64, eps=1e-05, momentum=0.1, affine=True, track_running_stats=True)
      )
    )
    (6): ResBlock(
      (body): Sequential(
        (0): BatchNorm2d(64, eps=1e-05, momentum=0.1, affine=True, track_running_stats=True)
        (1): ReLU(inplace=True)
        (2): BatchNorm2d(64, eps=1e-05, momentum=0.1, affine=True, track_running_stats=True)
      )
    )
    (7): ResBlock(
      (body): Sequential(
        (0): BatchNorm2d(64, eps=1e-05, momentum=0.1, affine=True, track_running_stats=True)
        (1): ReLU(inplace=True)
        (2): BatchNorm2d(64, eps=1e-05, momentum=0.1, affine=True, track_running_stats=True)
      )
    )
    (8): ResBlock(
      (body): Sequential(
        (0): BatchNorm2d(64, eps=1e-05, momentum=0.1, affine=True, track_running_stats=True)
        (1): ReLU(inplace=True)
        (2): BatchNorm2d(64, eps=1e-05, momentum=0.1, affine=True, track_running_stats=True)
      )
    )
    (9): ResBlock(
      (body): Sequential(
        (0): BatchNorm2d(64, eps=1e-05, momentum=0.1, affine=True, track_running_stats=True)
        (1): ReLU(inplace=True)
        (2): BatchNorm2d(64, eps=1e-05, momentum=0.1, affine=True, track_running_stats=True)
      )
    )
    (10): ResBlock(
      (body): Sequential(
        (0): BatchNorm2d(64, eps=1e-05, momentum=0.1, affine=True, track_running_stats=True)
        (1): ReLU(inplace=True)
        (2): BatchNorm2d(64, eps=1e-05, momentum=0.1, affine=True, track_running_stats=True)
      )
    )
    (11): ResBlock(
      (body): Sequential(
        (0): BatchNorm2d(64, eps=1e-05, momentum=0.1, affine=True, track_running_stats=True)
        (1): ReLU(inplace=True)
        (2): BatchNorm2d(64, eps=1e-05, momentum=0.1, affine=True, track_running_stats=True)
      )
    )
    (12): ResBlock(
      (body): Sequential(
        (0): BatchNorm2d(64, eps=1e-05, momentum=0.1, affine=True, track_running_stats=True)
        (1): ReLU(inplace=True)
        (2): BatchNorm2d(64, eps=1e-05, momentum=0.1, affine=True, track_running_stats=True)
      )
    )
    (13): ResBlock(
      (body): Sequential(
        (0): BatchNorm2d(64, eps=1e-05, momentum=0.1, affine=True, track_running_stats=True)
        (1): ReLU(inplace=True)
        (2): BatchNorm2d(64, eps=1e-05, momentum=0.1, affine=True, track_running_stats=True)
      )
    )
    (14): ResBlock(
      (body): Sequential(
        (0): BatchNorm2d(64, eps=1e-05, momentum=0.1, affine=True, track_running_stats=True)
        (1): ReLU(inplace=True)
        (2): BatchNorm2d(64, eps=1e-05, momentum=0.1, affine=True, track_running_stats=True)
      )
    )
    (15): ResBlock(
      (body): Sequential(
        (0): BatchNorm2d(64, eps=1e-05, momentum=0.1, affine=True, track_running_stats=True)
        (1): ReLU(inplace=True)
        (2): BatchNorm2d(64, eps=1e-05, momentum=0.1, affine=True, track_running_stats=True)
      )
    )
    (16): adder2d()
    (17): BatchNorm2d(64, eps=1e-05, momentum=0.1, affine=True, track_running_stats=True)
  )
  (tail): Sequential(
    (0): Upsampler(
      (0): Conv2d(64, 256, kernel_size=(3, 3), stride=(1, 1), padding=(True, True))
      (1): PixelShuffle(upscale_factor=2)
      (2): BatchNorm2d(64, eps=1e-05, momentum=0.1, affine=True, track_running_stats=True)
    )
    (1): adder2d()
    (2): Power_Activation()
  )
)
[Epoch 1]	Learning rate: 3.00e-3
[400/4000]	[L1: 211.1788]	6.4+43.5s
[800/4000]	[L1: 149.6691]	3.4+31.6s
[1200/4000]	[L1: 123.6690]	3.4+39.3s
[1600/4000]	[L1: 109.6793]	3.4+43.3s
[2000/4000]	[L1: 100.9053]	3.4+42.7s
[2400/4000]	[L1: 94.3955]	3.4+37.7s
[2800/4000]	[L1: 90.0189]	3.4+36.7s
…
      (body): Sequential()
    )
    (6): ResBlock(
      (body): Sequential()
    )
    (7): ResBlock(
      (body): Sequential()
    )
    (8): ResBlock(
      (body): Sequential()
    )
    (9): ResBlock(
      (body): Sequential()
    )
    (10): ResBlock(
      (body): Sequential()
    )
    (11): ResBlock(
      (body): Sequential()
    )
    (12): ResBlock(
      (body): Sequential()
    )
    (13): ResBlock(
      (body): Sequential()
    )
    (14): ResBlock(
      (body): Sequential()
    )
    (15): ResBlock(
      (body): Sequential()
    )
    (16): adder2d()
    (17): BatchNorm2d(64, eps=1e-05, momentum=0.1, affine=True, track_running_stats=True)
  )
  (tail): Sequential(
    (0): Upsampler(
      (0): Conv2d(64, 256, kernel_size=(3, 3), stride=(1, 1), padding=(True, True))
      (1): PixelShuffle(upscale_factor=2)
      (2): BatchNorm2d(64, eps=1e-05, momentum=0.1, affine=True, track_running_stats=True)
    )
    (1): adder2d()
    (2): Power_Activation()
  )
)
[Epoch 1]	Learning rate: 3.00e-3
[400/4000]	[L1: 207.9451]	4.1+40.3s
EDSR(
  (sub_mean): MeanShift(3, 3, kernel_size=(1, 1), stride=(1, 1))
  (add_mean): MeanShift(3, 3, kernel_size=(1, 1), stride=(1, 1))
  (head): Sequential(
    (0): adder2d()
  )
  (body): Sequential(
    (0): adder2d()
    (1): BatchNorm2d(64, eps=1e-05, momentum=0.1, affine=True, track_running_stats=True)
  )
  (tail): Sequential(
    (0): Upsampler(
      (0): Conv2d(64, 256, kernel_size=(3, 3), stride=(1, 1), padding=(True, True))
      (1): PixelShuffle(upscale_factor=2)
      (2): BatchNorm2d(64, eps=1e-05, momentum=0.1, affine=True, track_running_stats=True)
    )
    (1): adder2d()
    (2): Power_Activation()
  )
)
[Epoch 1]	Learning rate: 3.00e-3
[400/4000]	[L1: 208.4454]	3.7+40.8s
[800/4000]	[L1: 148.2290]	2.1+34.1s
[1200/4000]	[L1: 122.7318]	2.1+37.7s
[1600/4000]	[L1: 108.9796]	2.2+33.9s
[2000/4000]	[L1: 100.3506]	2.1+33.6s
[2400/4000]	[L1: 93.9195]	2.1+33.6s
[2800/4000]	[L1: 89.5962]	2.1+32.4s
[3200/4000]	[L1: 86.2155]	2.1+37.6s
[3600/4000]	[L1: 83.7944]	2.1+38.6s
[4000/4000]	[L1: 81.8838]	2.1+32.1s

Evaluation:
EDSR(
  (sub_mean): MeanShift(3, 3, kernel_size=(1, 1), stride=(1, 1))
  (add_mean): MeanShift(3, 3, kernel_size=(1, 1), stride=(1, 1))
  (head): Sequential(
    (0): adder2d()
  )
  (body): Sequential()
  (tail): Sequential(
    (0): Upsampler(
      (0): Conv2d(64, 256, kernel_size=(3, 3), stride=(1, 1), padding=(True, True))
      (1): PixelShuffle(upscale_factor=2)
      (2): BatchNorm2d(64, eps=1e-05, momentum=0.1, affine=True, track_running_stats=True)
    )
    (1): adder2d()
    (2): Power_Activation()
  )
)
[Epoch 1]	Learning rate: 3.00e-3
[400/4000]	[L1: 206.0158]	1.7+43.1s
[800/4000]	[L1: 146.4818]	0.8+32.3s
[1200/4000]	[L1: 120.8383]	0.8+35.9s
[1600/4000]	[L1: 107.3695]	0.8+39.1s
[2000/4000]	[L1: 99.0160]	0.8+38.0s
[2400/4000]	[L1: 93.3829]	0.8+32.3s
[2800/4000]	[L1: 89.1818]	0.8+33.2s
[3200/4000]	[L1: 85.9573]	0.8+32.5s
[3600/4000]	[L1: 83.4945]	0.8+38.8s
[4000/4000]	[L1: 81.3093]	0.8+39.7s

Evaluation:
EDSR(
  (sub_mean): MeanShift(3, 3, kernel_size=(1, 1), stride=(1, 1))
  (add_mean): MeanShift(3, 3, kernel_size=(1, 1), stride=(1, 1))
  (head): Sequential()
  (body): Sequential()
  (tail): Sequential(
    (0): Upsampler(
      (0): Conv2d(64, 256, kernel_size=(3, 3), stride=(1, 1), padding=(True, True))
      (1): PixelShuffle(upscale_factor=2)
      (2): BatchNorm2d(64, eps=1e-05, momentum=0.1, affine=True, track_running_stats=True)
    )
    (1): Power_Activation()
  )
)
[Epoch 1]	Learning rate: 3.00e-3
EDSR(
  (sub_mean): MeanShift(3, 3, kernel_size=(1, 1), stride=(1, 1))
  (add_mean): MeanShift(3, 3, kernel_size=(1, 1), stride=(1, 1))
  (head): Sequential(
    (0): adder2d()
  )
  (body): Sequential()
  (tail): Sequential(
    (0): Upsampler(
      (0): Conv2d(64, 256, kernel_size=(3, 3), stride=(1, 1), padding=(True, True))
      (1): PixelShuffle(upscale_factor=2)
      (2): BatchNorm2d(64, eps=1e-05, momentum=0.1, affine=True, track_running_stats=True)
    )
    (1): Power_Activation()
  )
)
[Epoch 1]	Learning rate: 3.00e-3
EDSR(
  (sub_mean): MeanShift(3, 3, kernel_size=(1, 1), stride=(1, 1))
  (add_mean): MeanShift(3, 3, kernel_size=(1, 1), stride=(1, 1))
  (head): Sequential(
    (0): adder2d()
  )
  (body): Sequential()
  (tail): Sequential(
    (0): adder2d()
    (1): Power_Activation()
  )
)
[Epoch 1]	Learning rate: 3.00e-3
EDSR(
  (sub_mean): MeanShift(3, 3, kernel_size=(1, 1), stride=(1, 1))
  (add_mean): MeanShift(3, 3, kernel_size=(1, 1), stride=(1, 1))
  (head): Sequential(
    (0): Conv2d(3, 64, kernel_size=(3, 3), stride=(1, 1), padding=(1, 1))
  )
  (body): Sequential()
  (tail): Sequential(
    (0): Upsampler(
      (0): Conv2d(64, 256, kernel_size=(3, 3), stride=(1, 1), padding=(True, True))
      (1): PixelShuffle(upscale_factor=2)
      (2): BatchNorm2d(64, eps=1e-05, momentum=0.1, affine=True, track_running_stats=True)
    )
    (1): Conv2d(64, 3, kernel_size=(3, 3), stride=(1, 1), padding=(1, 1))
    (2): Power_Activation()
  )
)
[Epoch 1]	Learning rate: 3.00e-3
[400/4000]	[L1: 60.3902]	2.6+40.7s
[800/4000]	[L1: 61.2972]	0.4+33.8s
[1200/4000]	[L1: 60.9653]	0.4+36.2s
[1600/4000]	[L1: 60.7357]	0.4+34.5s
[2000/4000]	[L1: 61.1452]	0.4+34.6s
EDSR(
  (sub_mean): MeanShift(3, 3, kernel_size=(1, 1), stride=(1, 1))
  (add_mean): MeanShift(3, 3, kernel_size=(1, 1), stride=(1, 1))
  (head): Sequential(
    (0): Conv2d(3, 64, kernel_size=(3, 3), stride=(1, 1), padding=(1, 1))
  )
  (body): Sequential()
  (tail): Sequential(
    (0): Upsampler(
      (0): Conv2d(64, 256, kernel_size=(3, 3), stride=(1, 1), padding=(True, True))
      (1): PixelShuffle(upscale_factor=2)
      (2): BatchNorm2d(64, eps=1e-05, momentum=0.1, affine=True, track_running_stats=True)
    )
    (1): Conv2d(64, 3, kernel_size=(3, 3), stride=(1, 1), padding=(1, 1))
    (2): Power_Activation()
  )
)
[Epoch 1]	Learning rate: 3.00e-3
[400/4000]	[L1: 60.3902]	7.8+62.4s
[800/4000]	[L1: 61.2972]	0.4+40.2s
[1200/4000]	[L1: 60.9653]	0.4+42.1s
EDSR(
  (sub_mean): MeanShift(3, 3, kernel_size=(1, 1), stride=(1, 1))
  (add_mean): MeanShift(3, 3, kernel_size=(1, 1), stride=(1, 1))
  (head): Sequential(
    (0): adder2d()
  )
  (body): Sequential()
  (tail): Sequential(
    (0): Upsampler(
      (0): Conv2d(64, 256, kernel_size=(3, 3), stride=(1, 1), padding=(True, True))
      (1): PixelShuffle(upscale_factor=2)
      (2): BatchNorm2d(64, eps=1e-05, momentum=0.1, affine=True, track_running_stats=True)
    )
    (1): adder2d()
    (2): Power_Activation()
  )
)
[Epoch 1]	Learning rate: 3.00e-3
[400/4000]	[L1: 206.0158]	5.4+53.7s
[800/4000]	[L1: 146.4818]	0.9+39.4s
EDSR(
  (sub_mean): MeanShift(3, 3, kernel_size=(1, 1), stride=(1, 1))
  (add_mean): MeanShift(3, 3, kernel_size=(1, 1), stride=(1, 1))
  (head): Sequential(
    (0): Conv2d(3, 64, kernel_size=(3, 3), stride=(1, 1), padding=(1, 1))
  )
  (body): Sequential()
  (tail): Sequential(
    (0): Upsampler(
      (0): Conv2d(64, 256, kernel_size=(3, 3), stride=(1, 1), padding=(True, True))
      (1): PixelShuffle(upscale_factor=2)
      (2): BatchNorm2d(64, eps=1e-05, momentum=0.1, affine=True, track_running_stats=True)
    )
    (1): Conv2d(64, 3, kernel_size=(3, 3), stride=(1, 1), padding=(1, 1))
    (2): Power_Activation()
  )
)
[Epoch 1]	Learning rate: 3.00e-3
